gnn_best.pth (torch, 297737 bytes, 16 tensors)

conv1.att f4 [1, 4, 64]
00000000: 9a69 9b3e d21c 853d e95f 00bc 4f7e 5bbe
00000010: 6e1b 85bc 5de2 8dbe 1413 163d ce6b b7bd
00000020: add9 263e 310c 01be a8c4 a8bd c6fe 38be
00000030: fd93 873e 39ab 3d3e c7d0 6abe 14ec 3f3e
00000040: 9033 57be fe65 043b 6fc3 303e 17ed bd3c
00000050: be4a 5a3e 283e 03be 9519 bb3d 1b45 293e
00000060: 285e 1e3e 2474 113e e8f6 2dbd 0723 843e
00000070: aab0 88be 0e84 27bd ee26 d2bd 116e 81be
00000080: 931b ccbd 7aac 363d 092e 8f3e 4c11 1a3e
00000090: ce54 3fbd 6e80 d1bd 0a58 1e3e ecd9 67bc
000000a0: f559 c53d d048 523e f550 7ebc b4bd 49bc
000000b0: 7a8b 2bbd 5384 793e 9928 45be 7a75 9a3e
000000c0: 406e babc 2df0 91be c0d4 dbbc a49d 72be
000000d0: 3081 543d 2839 9c3c 3897 8b3e de40 1cbe
000000e0: a523 653e 6ea4 45be 6cd1 923e 9d7a 893e
000000f0: 4edd 113e 0eac 77bd 0c44 333d 19ca f8bd
00000100: b907 353e ab14 173e 12e7 a0be 85d6 4bbe
00000110: 4178 593e 3d52 99bc 704e 29be 1fe4 78bc
00000120: 6807 49bc 9c24 4bbe 34bc 19be ca70 6f3e
00000130: 1df3 24be 5167 7abd b444 38bd 0009 353e
00000140: 50ae 84be 5b5e d43c ac1b 5fbe 0811 693d
00000150: de31 44bd eb64 3d3c 67f3 a23d cbc4 cebd
00000160: ac4c 9bbe d222 f63d f3bc 31be 066c 9b38
00000170: 682c c3bd 27dd f0bc 1024 12bd 4d52 e83d
00000180: 2b9c 1a3e 0b5e f3bd c323 623d 02df 923e
00000190: 2a22 69be f31a 863e 03a3 9dbc e982 453d
000001a0: e48c 2ebe 7700 1fbe 8bf4 7bbe c75a 4f3e
000001b0: 619e 84be 39db b63d e2e6 503e ef5d 8c3d
000001c0: fbdc 553e 82dc 1c3e e891 373d 1f97 2fbe
000001d0: efc8 febb 92df 93be 386e 59bd 1bfa 4dbe
000001e0: 1c8f 673c 988b 85be edec 4f3d d207 423d
000001f0: d9cf 003e c352 41be 2f07 75be 6014 73be
00000200: 805e 61bd 7b5f 8abd 2bbe 0fbe 3faf 4d3e
00000210: 1a12 863e 2ce4 ae3d 73d5 793e a3f6 0dbd
00000220: 6ddb 2d3d 0257 18be ee5c 0abe e9f9 263e
00000230: 9a89 533d 5ff5 9e3d 03e2 723d 1afd 39be
00000240: 349a 7ebd b9d1 06be 2371 5f3e b094 04be
00000250: 7e9f 693e f26f 65be 0916 913e b519 58be
00000260: 4c3e 8bbe d864 a03b bfc3 0e3e 69c1 d93d
00000270: ae77 0e3c 040d 233e 2c95 efbd 99fe 793e
00000280: 4f01 f23c c47c 0a3e bbc0 8bbe 566a 6d3e
00000290: 149b 0d3e 4a22 19be 9781 0cbe 78c6 89be
000002a0: dc60 743c 153c 95be 1c11 e0bd 6635 233e
000002b0: a619 4f3e e143 18be ad37 0c3e 6b39 b2bd
000002c0: b725 643c ab84 7dbe 342b 24bd f637 7d3e
000002d0: fb35 f73d bf25 2bbc d499 513c 6a72 883d
000002e0: f323 21be 17d3 553e a8c3 9abe 26be c03d
000002f0: 88ec 033e bb9e 8a3d 46bf d2bd f3ec eb3b
00000300: 2c84 2cbe ef18 213e 1ca4 57be 7577 913e
00000310: b7a0 903e 2772 a3ba 5ee3 863e af0b 8bbe
00000320: c1a5 0b3e 454a 8cbe 70ae 7cbd 867e 40bd
00000330: eddb e2bd 4be7 d73c 73b7 9abe 9e9d 2ebd
00000340: 8854 92be f79e c9bc fb83 843e 3bba ebbc
00000350: 69a5 873e 8791 89be 4f7c 1bbe 7a8c a23d
00000360: 57b3 1bbe 1a29 303d 0423 153e 69c4 88be
00000370: 3a9c 8dbe 3563 e03b ec3b 95bc 259b 523d
00000380: 965b 2f3e 0eb1 4bbe 87e7 e0bc 03f4 ebbd
00000390: 59a9 a53c 0da9 c63d 91a6 0bbb 1919 263e
000003a0: 194f b0bd 2922 5f3c 1434 03be 32c4 5cbd
000003b0: d9e4 843e 159e 02be 74d0 8cbe a95e 8c3e
000003c0: 5802 90bc 7f02 73be 61f4 63be b6b9 bb3d
000003d0: 4dd9 66be fe50 38be ee70 93bd 9fcf 1b3d
000003e0: 5fb4 f43d 4bd2 173d fcf2 553e 41be 2f3e
000003f0: dec2 51be f1a2 143e c83d 43bd 646e aebd
0.30354005 0.06499638 -0.007835367 -0.21434902 -0.016248431 -0.27711764 0.036639288 -0.08956109
0.16293974 -0.12602307 -0.08240634 -0.18065938 0.26480094 0.18522348 -0.22931205 0.187424
-0.21015763 0.0020202394 0.17262052 0.023184342 0.21317574 -0.1281668 0.09135739 0.16530268
0.15465605 0.1420446 -0.042471796 0.25807974 -0.26697284 -0.04089742 -0.102613315 -0.25279287
-0.09966197 0.04459808 0.2796481 0.1504566 -0.046711735 -0.10229574 0.15463272 -0.014151078
0.096362986 0.20535588 -0.015522231 -0.012313295 -0.041881062 0.24366884 -0.19253768 0.30167753
-0.02275765 -0.28503552 -0.026834846 -0.23692948 0.051881015 0.019070223 0.27263808 -0.1525912
0.22376879 -0.19301006 0.286754 0.2685136 0.14244577 -0.06046682 0.043766066 -0.12147922
0.17678727 0.14753978 -0.31426293 -0.19906051 0.2123728 -0.018715972 -0.16533828 -0.015191107
-0.012269832 -0.19838184 -0.150132 0.2338287 -0.16108365 -0.061133686 -0.044987395 0.17679214
-0.2591424 0.025923898 -0.217879 0.056901008 -0.04789912 0.011559705 0.079565816 -0.10096129
-0.30331933 0.1201836 -0.17357235 7.411097e-05 -0.09529954 -0.029402329 -0.035678923 0.11343823
0.15098636 -0.11883172 0.055209886 0.28685766 -0.22766939 0.26192436 -0.01924277 0.04822055
-0.17045933 -0.15527521 -0.24605004 0.20249473 -0.25902084 0.08928532 0.20400575 0.06853854
0.20885079 0.15318492 0.04481688 -0.17147492 -0.007775418 -0.28881508 -0.05308363 -0.20114939
0.014133241 -0.26083064 0.05076306 0.04737074 0.12579288 -0.18879227 -0.23928522 -0.23738241
-0.055021763 -0.06756493 -0.14037387 0.20086382 0.26185685 0.08539614 0.2439783 -0.03465904
0.04244559 -0.14876941 -0.13512012 0.1630627 0.0516449 0.077616446 0.059297573 -0.18162957
-0.06215878 -0.1316594 0.21820502 -0.12947345 0.22814748 -0.22405985 0.28337124 -0.21103556
-0.27195966 0.004894834 0.13941859 0.10632593 0.008695526 0.15922934 -0.11698374 0.24413528
0.02954164 0.13524157 -0.2729548 0.23185095 0.13828689 -0.14954486 -0.1372131 -0.26909232
0.014915671 -0.291474 -0.10940763 0.15938339 0.20224628 -0.14869644 0.13693114 -0.08702358
0.013925008 -0.2475764 -0.040080264 0.24728379 0.12070843 -0.010446011 0.012793023 0.06662448
-0.1573637 0.20881306 -0.302274 0.09411268 0.12883198 0.06768557 -0.10290389 0.0071998774
-0.16847295 0.15732168 -0.21058697 0.2841145 0.28247616 -0.0012469933 0.26345342 -0.2715735
0.13637449 -0.27400413 -0.061689794 -0.046995662 -0.11077104 0.026355406 -0.30218086 -0.042630784
-0.28580117 -0.024611933 0.25881943 -0.028775325 0.26493385 -0.2686884 -0.15184139 0.0793695
-0.15205131 0.043007948 0.14564139 -0.2671235 -0.27658254 0.006847764 -0.01821705 0.05141749
0.17124781 -0.1989176 -0.02745415 -0.11521151 0.020222353 0.09700213 -0.0021308998 0.16220511
-0.08608837 0.013618984 -0.12812835 -0.053898044 0.25955847 -0.12755616 -0.27502787 0.2741597
-0.017579243 -0.23731421 -0.22261192 0.09166281 -0.22543831 -0.17999646 -0.07199274 0.0380398
0.119484656 0.037065785 0.20893472 0.1716242 -0.20484492 0.14515282 -0.04766634 -0.08517149

conv1.bias f4 [256]
00000000: e0b0 ab3c 0000 0000 16b8 bd3c 9a0c b63c
00000010: c554 afbc 1efe d1bc 3975 e0bc 0000 0000
00000020: 98af 7cbc 6bfa c83c 4256 413c 0000 0000
00000030: 0000 0000 8df4 c43c 0000 0000 ccf6 6dbc
00000040: 3129 a5bb 9996 29bc 3cd8 6b3b 87d2 d9bc
00000050: 271c bc3c 0000 0000 e089 fa3c 8ec3 85bb
00000060: 0f80 62bc d1d4 63bc dc87 f03c 0000 0000
00000070: d29c ac3c 1a6e b93c 0000 0000 0000 0000
00000080: 4341 943c 0000 0000 ae75 883b 043d e03a
00000090: 6215 9c3c 0563 523c a87a c3bb 2420 a938
000000a0: 2b58 3fba bf8b 8abc 2052 aebb b45c 9f3a
000000b0: 688a a73c 8f84 e13c b9e2 9bbb cf44 203d
000000c0: e7da 8b3c 1ae3 91bb d77b bbbc 60a0 383c
000000d0: b21c 0a3d 0000 0000 0000 0000 0000 0000
000000e0: 061b c53c 0000 0000 0000 0000 8178 0f3d
000000f0: fe55 233b ce2c d53b e012 9cbb 0000 0000
00000100: f015 b63c 55fc 9fbb 6f40 a73b 3aba eb3c
00000110: 9ae9 233b 07ab ed3c 882c bc3c 0000 0000
00000120: 5077 aebc 0000 0000 7ee9 d53c 0000 0000
00000130: 0000 0000 a3e6 233c 425c ecba 433a eb3c
00000140: 4cd5 b2bb 0000 0000 66af 45bc 1375 073d
00000150: a17e b2bb 0000 0000 2ada 913c ea88 c43c
00000160: ff03 d03a 1617 ef3c 0000 0000 0000 0000
00000170: 0000 0000 4ad5 afbb 0000 0000 3cb1 cc3c
00000180: 0000 0000 0000 0000 0000 0000 7188 413c
00000190: aa79 eb3c ca6b de3c 0000 0000 2fcd 1ebb
000001a0: 0000 0000 15c8 51bb c2e9 fd3b 0000 0000
000001b0: 452d f83b eb30 9fbc 8b13 35bc 0000 0000
000001c0: 6571 8bbc 0000 0000 d1d8 f03c 07b9 89bc
000001d0: eb02 37bc 050f e03c bbd6 72bc deef 32bc
000001e0: b614 a93c 86ce d03c 7961 dd3c b24c 093c
000001f0: 0000 0000 4c99 69bc 4aa1 5cbc c502 a13c
00000200: 68ca 583c 0d35 133d e129 503b 82dc a33b
00000210: b025 4c3c 0000 0000 0000 0000 0000 0000
00000220: f41d 58bc 0000 0000 0000 0000 0000 0000
00000230: c40e 343c f01b 103c 0000 0000 0000 0000
00000240: a2df 6ab9 b419 603c 2517 273d 0000 0000
00000250: 33ea 91bc 3c04 833c 0000 0000 c550 9b3b
00000260: fdec c43c e70f 56bc 53da 97bc 0000 0000
00000270: 0000 0000 4600 32ba 6f28 c83c 6059 f93c
00000280: 92b5 b13c 0000 0000 0000 0000 0000 0000
00000290: f4d2 db3c 0000 0000 0000 0000 0000 0000
000002a0: 6a36 323b b27d 26bb 0000 0000 dd68 c6bc
000002b0: 51e8 8a3a 0000 0000 0000 0000 0000 0000
000002c0: 641a 8b3c ebda 8f3c 8d11 3e3c 6b2a ec3c
000002d0: a19f b0bb 0000 0000 0000 0000 0000 0000
000002e0: 5f26 8c3b 0000 0000 0000 0000 0000 0000
000002f0: 0000 0000 0000 0000 0000 0000 c7ad b23b
00000300: 8171 b43c 1453 893c e06a ce3c 0000 0000
00000310: 0000 0000 12fa d23c 5978 123b 0000 0000
00000320: 3713 273b c172 ec3c 0000 0000 9cd9 30bc
00000330: f7b3 83bc 0000 0000 d0e1 d63c 0000 0000
00000340: 0000 0000 0000 0000 0000 0000 b3da ba3c
00000350: f825 b73c 0000 0000 0000 0000 b25c e33c
00000360: 383f b13c c157 993c 45ec 45bc 2c44 e03c
00000370: 2b2f a33c 31d4 9aba 0000 0000 0000 0000
00000380: cc6d c13c ac83 de3c 0000 0000 0000 0000
00000390: 45aa fdbb 0000 0000 0000 0000 0000 0000
000003a0: 85c6 e0b9 af3c edbb da75 e53c 723b 5f3c
000003b0: 1f4c 023c f6c5 16bc a457 bb3c 0000 0000
000003c0: bf61 9bbc 0000 0000 99fd 163c 19ef a2bc
000003d0: 0000 0000 0000 0000 6720 7dbc 0ecb d93a
000003e0: bea2 4fb9 5036 563b c4e4 123d 0000 0000
000003f0: d721 613c 0000 0000 23bc 563c 4079 cf3c
0.020958364 0.0 0.023159068 0.022222806 -0.021402726 -0.025633868 -0.027399646 0.0
-0.015422724 0.024533471 0.011800351 0.0 0.0 0.024042392 0.0 -0.014524173
-0.005040311 -0.010350847 0.003598704 -0.026589645 0.022962643 0.0 0.030583322 -0.00408215
-0.013824477 -0.01390572 0.029361658 0.0 0.021070872 0.022635508 0.0 0.0
0.018097525 0.0 0.004164419 0.0017108028 0.019053165 0.012840991 -0.0059655495 8.0645346e-05
-0.000729921 -0.01691234 -0.0053198487 0.0012158365 0.02045174 0.02752903 -0.004757252 0.03912812
0.017072154 -0.0044521214 -0.0228862 0.011268705 0.033718772 0.0 0.0 0.0
0.024060737 0.0 0.0 0.03502703 0.0024923082 0.0065055853 -0.0047629923 0.0
0.022227257 -0.0048823752 0.0051041166 0.028775323 0.0025011064 0.029012216 0.022970453 0.0
-0.021297127 0.0 0.026112314 0.0 0.0 0.010003719 -0.0018032866 0.028714305
-0.005457556 0.0 -0.012065744 0.033070635 -0.0054472242 0.0 0.017804224 0.023991067
0.0015870332 0.029185813 0.0 0.0 0.0 -0.005366002 0.0 0.024986856
0.0 0.0 0.0 0.011812315 0.028744537 0.027151007 0.0 -0.0024231186
0.0 -0.0032010127 0.0077488134 0.0 0.007573756 -0.019432506 -0.011052023 0.0
-0.017021844 0.0 0.029400261 -0.01681186 -0.011170129 0.027350912 -0.014821704 -0.010921447
0.020639759 0.025489103 0.027024018 0.008380102 0.0 -0.01425774 -0.013466189 0.01965464
0.013231851 0.035939265 0.0031763243 0.005000652 0.012460157 0.0 0.0 0.0
-0.013190735 0.0 0.0 0.0 0.0109898485 0.008795723 0.0 0.0
-0.00022399289 0.013678003 0.040793557 0.0 -0.01781187 0.01599323 0.0 0.004739853
0.024038786 -0.013065315 -0.018536722 0.0 0.0 -0.0006790202 0.024433343 0.030438125
0.021693025 0.0 0.0 0.0 0.026833989 0.0 0.0 0.0
0.0027193078 -0.002540451 0.0 -0.024219925 0.00105978 0.0 0.0 0.0
0.016980357 0.017560443 0.011600864 0.02882882 -0.005390123 0.0 0.0 0.0
0.004277035 0.0 0.0 0.0 0.0 0.0 0.0 0.005452845
0.02202678 0.016763248 0.025197446 0.0 0.0 0.025754008 0.0022349565 0.0
0.002549363 0.028863313 0.0 -0.01079407 -0.016077025 0.0 0.026230723 0.0
0.0 0.0 0.0 0.022809362 0.022356972 0.0 0.0 0.027754162
0.02163659 0.018718602 -0.012080257 0.027376257 0.019919952 -0.0011812506 0.0 0.0
0.023611926 0.027162395 0.0 0.0 -0.007741245 0.0 0.0 0.0
-0.00042872518 -0.0072399 0.028010298 0.013625013 0.007952719 -0.009202471 0.022868939 0.0
-0.018967507 0.0 0.009215736 -0.019889401 0.0 0.0 -0.01544962 0.0016616301
-0.00019801685 0.0032686181 0.0358627 0.0 0.013740978 0.0 0.013106379 0.025326371

conv1.lin_l.weight f4 [256, 3]
00000000: c1c2 93bd 1265 07be ea57 8dbd 97cb 6b3d
00000010: 72b0 99bc 8883 1dbe e986 c13d 9c4f 243d
00000020: c3fc 11be 21b4 3a3d 7821 05be db11 adbd
00000030: fd55 65bd 84a1 c23d 42f5 2abd 4e71 0b3e
00000040: f730 e53d 2d88 c93d 606b 823d 2538 afbb
00000050: 7c84 a3bd b80a 123d a0b4 0bbe 69cb 863d
00000060: 84ba 3f3b 578a 21be 6aac 3b3d 9295 c13d
00000070: 9f12 d73d 639e 32be 6c83 143e 6902 093e
00000080: 0d31 f23d 1be4 0ebe 0b78 903d b2dc ef3d
00000090: 9d22 d13d e23a a53d 4186 41bd 2a84 f03d
000000a0: d79d 85bd 13a9 ccbc 965f a53d f56a f3bd
000000b0: 57f3 e73d 06d2 0e3d 118a 7d3d f0a6 433d
000000c0: b47b bd3d 7775 f03d 6be6 0cbe 9993 68bd
000000d0: e11e b8bd c9f3 85bd ad71 70bd cb8d f63d
000000e0: e43e 5c3d 08dd cebd 4f9d 59bd 33d9 703d
000000f0: e937 3dbd f21d 20be 47e8 d1bd ce75 e4bb
00000100: 6587 7e3a 8aae 82bd 2706 da3d 72f8 be3d
00000110: 43ed 25bd 8fc7 d2bc 4d4a aabd b114 8abd
00000120: 7b96 0c3e 419e cd3b 17aa fd3c 5a26 00be
00000130: dde6 a53d fc5d 823d 4fd7 ccbd 2f63 db3d
00000140: 2a53 f8bc 9d43 a23d 0035 cebb c419 0ebe
00000150: a8a0 26be e950 27bd 2669 ea3d 5bc8 05be
00000160: 3cf9 08bd 4fcf 593d b2fc a1bb 642e 9bbd
00000170: a056 d83d f0f8 92ba 0121 a23d 523d 9dbd
00000180: fa33 133e 46a7 84bd 0cac 1bbe 35c2 28ba
00000190: 44c5 aabc e2c3 d53d e5e4 0dbe 053c 1abe
000001a0: a6f0 d13d c839 9dbd a54d c23d 237b 01be
000001b0: 09cb 8e3d 30d6 fbbc d225 a3bd b121 0dbd
000001c0: 4c45 ffbb bd81 6bbd 991f a8bd 3137 1cbe
000001d0: 37fe 81bd c124 1ebe f0ec ab3d ad09 833d
000001e0: 1f3e 3e3c 79db b8bc 2e57 d73d 7244 19be
000001f0: df76 00bd e9ad 503d 41b7 103e 7e2d fb3d
00000200: 9aad 243e 8b70 c9bd 82aa 9e3d 59a0 d73d
00000210: 3178 f1bd 8ef6 41bd 1b7e bfbc a48d eebd
00000220: 02ce 25be fd57 86bd 7ca4 f7bd 8ae2 7ebc
00000230: c1ec debd e661 35be 9d9e b1bd 5412 f2bd
00000240: 720a acbd 9542 253d 1c24 79bd b16f 3a3c
00000250: ee08 a6bc a9cc af3b 06fc aabd e633 bb3d
00000260: b2d4 673d b52f d8bd af25 76bc 26db cb39
00000270: 3a11 b9bd c919 f1bc 8a93 80bd 84fa 83bd
00000280: 4a91 343d 0a63 56bd 2d08 08be 9c8b e2bd
00000290: 5b7b 243d 25c5 36bc 8bc6 403c 01b8 41bd
000002a0: 00b5 30be 45b4 f93c b0a4 d73c 81b7 0b3e
000002b0: b7ec b4bd c579 c0bc e6c3 4b3d 650c 8dbc
000002c0: aae1 dabc a360 c0bc e340 cd3c f410 4d3d
000002d0: ee82 883d c82a 44bd 56f7 b13d 683b a53d
000002e0: d90e 203e 374f f23c 6089 c83d 4157 0e3e
000002f0: fd4e 19be 1361 50bd 72a3 013d 966a 02bd
00000300: 1929 173d 148a ba3d 23bb c13a aa75 973d
00000310: 4133 f9bd ad57 8ebd cd7b 913d 58a1 8c3c
00000320: db35 bb3d fafa 00be caf5 b33c a3ea f13d
00000330: c01e ce3d 2c43 a3bd 1d5e d9bc 17ba 82bd
00000340: 25ff a4bd 3ed7 d8bb 245f 1bbe 5c4b 1e3b
00000350: fa54 19be 3986 29bc 3076 e5bd 2181 94bb
00000360: e9af 093e a219 00be 5109 1abe 882f af3d
00000370: 086c 8bbc fe97 32bd 89f1 983d 1a6c 77bb
00000380: 95bc 383e 5fdd 4abb 4a96 b33d 31b5 9abc
00000390: 0a7f 203e fae6 31b9 0194 053d 1030 aabc
000003a0: a987 08be 3a62 5b3b 6e27 d63d be39 953c
000003b0: 015d 74bc 02ee 3abd 9bca f63d 5d69 9b3c
000003c0: caa2 38bd 57db 0fbe 9054 5fbd a597 15be
000003d0: d463 963d 1929 ae3d 0026 c83d 3ca5 7b3c
000003e0: 9070 2fbe 38ec 16be afed 88bd 841e 50bd
000003f0: 8454 913d 40cf babd 1b61 cdbd 6eea 8c3c
-0.07214881 -0.13222149 -0.06901534 0.057567205 -0.018760893 -0.15382206 0.0944956 0.040114984
-0.14256577 0.04558194 -0.13001049 -0.08450671 -0.055990208 0.09503463 -0.041737802 0.13617441
0.1119098 0.098404266 0.063681364 -0.005347269 -0.07984254 0.035654753 -0.13643122 0.06581766
0.002925546 -0.15775429 0.045818724 0.094523564 0.105015986 -0.17443232 0.14503258 0.13379826
0.11825762 -0.13954203 0.070541464 0.11712016 0.1021168 0.08067872 -0.047247175 0.11743958
-0.06524246 -0.024982965 0.08074872 -0.11885635 0.1132571 0.034868263 0.06189925 0.047766626
0.0925211 0.11741155 -0.13759772 -0.056781385 -0.08990265 -0.06540639 -0.05870216 0.120387636
0.053770915 -0.10100752 -0.053128537 0.058800887 -0.0461959 -0.15636423 -0.102493815 -0.006972051
0.00097095064 -0.06380947 0.10645705 0.09324731 -0.040509474 -0.025729923 -0.08314953 -0.06742228
0.13729279 0.006274969 0.030964894 -0.1251463 0.08100674 0.06365582 -0.10002004 0.10712277
-0.030313093 0.079230525 -0.006292939 -0.13877016 -0.16272223 -0.040848646 0.11445837 -0.13064711
-0.033440813 0.05317622 -0.0049434537 -0.07577208 0.105633974 -0.0011213105 0.07916451 -0.076777115
0.14375296 -0.064772174 -0.1520235 -0.00064376305 -0.020846017 0.10437752 -0.13856848 -0.15061958
0.10250978 -0.076770365 0.09487466 -0.12644629 0.0697232 -0.030741781 -0.07966198 -0.03445596
-0.0077902433 -0.057496775 -0.08209152 -0.15255429 -0.06347316 -0.15443708 0.083948016 0.0639833
0.0116114905 -0.02256559 0.10514675 -0.14967516 -0.031363364 0.050947104 0.14132406 0.12264536
0.16081849 -0.09835919 0.077473655 0.10528631 -0.11790503 -0.047354273 -0.023375561 -0.116481096
-0.16191867 -0.06559751 -0.1209192 -0.015556941 -0.10885001 -0.17713127 -0.08672831 -0.11819902
-0.0840043 0.0403467 -0.060825452 0.011379168 -0.02026793 0.0053649736 -0.08348851 0.09140758
0.056599326 -0.105559744 -0.015023633 0.00038882456 -0.09036489 -0.02943124 -0.06278141 -0.064442664
0.04408387 -0.052340545 -0.13284369 -0.110617846 0.040156703 -0.011155401 0.011766086 -0.04729462
-0.17256546 0.030481467 0.026323646 0.1364422 -0.08834212 -0.023495564 0.04974737 -0.017217824
-0.026718933 -0.02348358 0.025055354 0.050064996 0.06665598 -0.047892362 0.08689754 0.080679715
0.15630664 0.029578788 0.09791827 0.13900472 -0.14971538 -0.050873827 0.031650014 -0.03183993
0.03690443 0.091083676 0.0014780503 0.073954895 -0.12167979 -0.069503166 0.07103691 0.017166778
0.091411315 -0.1259574 0.021967787 0.118123315 0.10064459 -0.079717964 -0.026534135 -0.0638315
-0.080564775 -0.0066174557 -0.15173012 0.0024153804 -0.14973822 -0.010346943 -0.11204183 -0.004531995
0.1344601 -0.12509778 -0.15042616 0.08553988 -0.017019287 -0.043601982 0.07467944 -0.0037753643
0.18040688 -0.0030954701 0.087689 -0.018885227 0.15673462 -0.00016966081 0.03261185 -0.020774871
-0.13333 0.0033475296 0.10456739 0.01821601 -0.014914752 -0.04563714 0.12050363 0.01897114
-0.045077123 -0.14048515 -0.054524004 -0.14608629 0.073432595 0.085039325 0.09772873 0.015359219
-0.17132783 -0.14738548 -0.066859595 -0.050810352 0.07096198 -0.09121561 -0.10028287 0.017201629

conv1.lin_l.bias f4 [256]
00000000: 9e16 5d3e f3eb e7be 5490 683e 09d0 c43e
00000010: 3902 f6bc 4e46 073f 046c 933e 455f 58be
00000020: 1fb2 c93e 539e 443e e008 48bd 7897 09bf
00000030: aa12 b6be dfeb 423e e25e d5be 778a 8cbd
00000040: 2aa9 0ebe 1c96 e53e 62ad b1bd 6c57 ba3d
00000050: ff6a 8d3e 4f58 f5be 04ee 7d3d f11c 053f
00000060: e75c ff3e 29fe ca39 64ab 323e e567 87be
00000070: bc6d 223e b461 ca3e f461 e8be b297 06be
00000080: 3ec4 cebd 5fe1 ccbe ef82 083f fb52 6b3c
00000090: 83ea 963e 5849 0a3f c682 0a3f 3332 043f
000000a0: d873 983e 5078 7a3e 1bfd 9fbe 92e3 e03e
000000b0: c1c6 c83e efcc 953e b48d 12bd d0e8 563d
000000c0: 9a2d ab3e 325e a4bc a534 af3d d9c7 833e
000000d0: 9da5 043f 90b0 a9be 6142 99be 30b0 f7be
000000e0: 77e8 9d3e ea4b 05bf fd75 dcbd d0f6 173f
000000f0: 1a63 033f 0cd3 abbd f63b 0f3f f7ac fabe
00000100: f4b8 a43e 4e3c f63e 8832 0c3e 9105 0f3f
00000110: 4a24 e73e dcd1 f43e 10d8 a93d 34e6 3dbe
00000120: 2467 d23e 29b0 05bf d42a 8db9 5591 80be
00000130: 1611 08bf 9bbc 243d e34f ad3e fa17 0f3f
00000140: efc8 53be 6286 10bf 46fa e33e 7519 bc3c
00000150: 3385 57be 3fff 83be 8107 883e fb76 d43e
00000160: 6ee0 723e f81c d43e a529 fabe 558f 97be
00000170: f7fc efbe 4d5c 0e3f 671f 9cbe 1e8d a73e
00000180: 02a5 09bf a852 bebe e75a d4be c7a6 963e
00000190: b767 033f 2060 0b3f 9c08 cdbe 5fad d73e
000001a0: 7fea 9dbe f28f e7bd 902c ccbd 6758 eebe
000001b0: 7fb5 15be a964 da3e 1f7a 5c3e 6a5a 11bf
000001c0: 7d86 ef3e 1453 04bf 0f78 323e e02f 033f
000001d0: 1978 823e bfe2 a93e efdf 163e d6d3 22bd
000001e0: 30fc 223d 4006 d43e 6ec8 7b3e 003b 2f3e
000001f0: 2eec 07bf 8e11 b83e 29ea c1bc 235c 0dbd
00000200: 8737 b43e 2e62 3d3e 220e febd 40b5 be3e
00000210: 36c1 553d 6dd6 bcbe 765b e9be 893e 92be
00000220: 01bf 37be 64eb 33be 7db4 0ebf 3ea0 aabe
00000230: 74b9 e63e bbbe 0dbe c61e a4be c3a3 54be
00000240: 44ac 923e 0a0e 6e3d 392d 2e3c 3860 babe
00000250: 5384 3e3c f234 b83e 8fd5 a0be ebb6 55be
00000260: 9e3d c73e 4d97 b43d 99ab e13e 5cb5 0cbf
00000270: 6df9 a8be e9e2 013e f578 5f3e 64d5 e43e
00000280: d128 0f3d b5b7 94be a517 12bf 0731 ebbe
00000290: d85e 173e 395e c9be e2ae 93be c1db 34be
000002a0: 1dff 073f 646e 9dbd 82d0 01bf 2ebd 0d3e
000002b0: 48b3 c23d c890 abbe 361b c2be 91c5 1dbe
000002c0: c5cf d33d 35c8 e03e 76f3 963e b007 923e
000002d0: 41ac 03be 9545 5ebe 3acc f3be ab2d 8bbe
000002e0: d795 013e 5575 d2be cee1 4fbe 6b7d b1be
000002f0: 8725 b6be 3627 9cbe 1961 13bf 7089 cf3e
00000300: 186e 943e b8da 473e 996c 963c d204 51be
00000310: 578e efbe a77c 183f ee25 ab3e ec5f a0be
00000320: 5cc9 24be cd44 333e f91c 0cbf e8b1 033f
00000330: 9aed 503e 5547 babe 7558 9a3e 1e98 d5be
00000340: d411 cbbe 3a52 5ebe 6544 9bbe b876 933d
00000350: e9d6 053f fbda efbe 3eee 9dbe 7fa1 fb3e
00000360: 669c 0c3f b346 0a3f b1f0 ba3e 1ee0 013f
00000370: 6b03 0a3f 92ac 6d3d 2dee 70be df77 2dbe
00000380: aeb1 ec3e 763f d53a 3636 f9be f2fd c6be
00000390: 02f4 7d3e 5f3e 08bf cb6d 01be 2657 55be
000003a0: 3304 943d 9973 4dbe 1513 443e e0ed 2a3e
000003b0: d569 0fbe 070f 363e c492 893d 7aa4 cabe
000003c0: 5e95 1f3d e6e9 ddbe 19d0 933e a39c 6fbd
000003d0: a039 80be c43a 0bbf 6200 a23e 596f 1abe
000003e0: 04de 81be e8cc 103f 181a a8bd 4669 d5be
000003f0: e8e7 0e3f bc77 ccbe 51d4 863e 5d60 8f3d
0.21590659 -0.45297202 0.22711307 0.38439968 -0.030030357 0.5284165 0.28793347 -0.21130092
0.39393708 0.19201021 -0.04883659 -0.5374675 -0.35561115 0.1903529 -0.41673952 -0.068623476
-0.13931718 0.44841087 -0.08675648 0.09098706 0.27620694 -0.47918937 0.061994568 0.51997286
0.49875566 0.00038717806 0.17448193 -0.26446453 0.15862173 0.39527667 -0.45387232 -0.13143805
-0.10096024 -0.40015694 0.5332479 0.014363046 0.29475793 0.54018164 0.54105794 0.516391
0.29775882 0.24459958 -0.31247792 0.43923622 0.39214137 0.29257914 -0.03577967 0.05246812
0.3343323 -0.020064447 0.08554963 0.2573841 0.51815206 -0.3314252 -0.29933456 -0.48376608
0.3084142 -0.5206896 -0.10764692 0.5936098 0.5132309 -0.08389863 0.5595087 -0.48960087
0.32172358 0.48092884 0.13691151 0.5586787 0.45144874 0.4781636 0.08293164 -0.18544847
0.41094315 -0.52221924 -0.00026925525 -0.2511088 -0.5315107 0.04021893 0.3385001 0.5589596
-0.20682119 -0.5645505 0.4452688 0.022961358 -0.21046905 -0.25780675 0.26568225 0.41497025
0.23718426 0.4142835 -0.48859897 -0.2960154 -0.46872684 0.5560959 -0.30492708 0.3272485
-0.53767407 -0.37172437 -0.41475603 0.29424116 0.5133013 0.5444355 -0.4004563 0.4212446
-0.3084297 -0.11306752 -0.09969437 -0.4655182 -0.14620017 0.42654923 0.2153096 -0.56778586
0.46782294 -0.5168927 0.17428611 0.51244926 0.25482252 0.33180806 0.14733861 -0.039752804
0.039791286 0.41411018 0.24588177 0.1711235 -0.53094757 0.35950893 -0.023671227 -0.034511697
0.35198614 0.18494484 -0.12405039 0.37247658 0.052186213 -0.36882344 -0.45577592 -0.28563336
-0.17943956 -0.17570263 -0.55744153 -0.3332538 0.45063365 -0.13842289 -0.32054728 -0.20765595
0.28647053 0.058118857 0.010630899 -0.36401534 0.011628228 0.35977894 -0.31412932 -0.20870559
0.38914198 0.08817921 0.4407623 -0.5496423 -0.33002797 0.12684216 0.21823485 0.44694054
0.034951035 -0.29046407 -0.5706733 -0.45935842 0.14782274 -0.393297 -0.28844362 -0.17661954
0.53123647 -0.07687071 -0.5070878 0.13841698 0.095068514 -0.33508897 -0.37911385 -0.15407397
0.10342363 0.43902746 0.2948262 0.2852149 -0.12858678 -0.21706231 -0.4761675 -0.2718328
0.12654816 -0.41105142 -0.20300981 -0.34666 -0.35575506 -0.30498666 -0.57570034 0.40534544
0.28990245 0.19517028 0.01836233 -0.20411995 -0.46788284 0.59565204 0.33427376 -0.31323183
-0.16092438 0.17506714 -0.5473171 0.5144334 0.20403138 -0.36382547 0.30145612 -0.4171762
-0.3966204 -0.21711054 -0.30325618 0.07200378 0.5228105 -0.46846756 -0.30845827 0.4914665
0.54926145 0.5401413 0.36511758 0.507326 0.53911465 0.058025904 -0.23528357 -0.16940258
0.4622931 0.0016269523 -0.48674172 -0.3886562 0.24800113 -0.5322017 -0.12639539 -0.20834026
0.072273634 -0.20063628 0.19147904 0.16692305 -0.14005215 0.1777917 0.067174464 -0.3957861
0.038960807 -0.43342513 0.28869703 -0.05849899 -0.25043964 -0.54386544 0.31640917 -0.15081538
-0.25364697 0.5656266 -0.08208102 -0.4168188 0.5582261 -0.399351 0.2633386 0.07000802

conv1.lin_r.weight f4 [256, 3]
00000000: 3b44 1c3c 146b 6f3d 38a4 0bbe e5ea 8d3d
00000010: 3839 f3bd 991a e63c e57e e73d fcf6 e1bd
00000020: e2d2 033e 9329 5bbd ecd0 18be 2f5a ea3c
00000030: b1b8 0f3e 517a 06bc 4d6d b03c c853 5bbd
00000040: 2168 b43d a03c 2b3d aef1 5ebd 41d3 b3bd
00000050: 478d 11bd 272d 21bd c591 c13d c02d 2fbc
00000060: 0b20 00be a34d 013e 4c23 a03d 2678 11be
00000070: 1bde e0b9 f57e 963d b212 e8bc bf2d 1fbe
00000080: 86c8 a7bd 8a00 8cbd 4f9c f63b c74f 00bd
00000090: 6313 96bc a6b5 16bd b8ec 0bbe 0828 36bd
000000a0: c177 003e 3b57 043e 642d a2bd b570 2fbd
000000b0: f6f7 dfbd cb1d 623c 3ecd 1f3c 9d51 f63d
000000c0: 50e2 11bd af68 183e 78c0 32bd 036f 293d
000000d0: f3ee df3d 9f49 96bc f464 55bc aa41 44bd
000000e0: 08fb e5bd 1186 e4bd 08e6 c63d 5e77 19bd
000000f0: bdcb a73d beed fb3d 3c39 e3bc d64f cbbd
00000100: baaa e33d bedf c03d 9266 f13c 0e46 873d
00000110: feb1 353d 4e84 863d 06e6 bebd 40ed fe3d
00000120: a7d8 d73c 7649 e0bd 7a24 883d 5133 ca3d
00000130: b1e4 01be 1491 a43c 920a 11be 9daa b7bd
00000140: 8966 ebbd 5695 e5bd 2f2b e43d 0292 bb3d
00000150: 6e27 f8bc 4d5b 7ebc 3970 293e 0097 d6bc
00000160: 1f15 67bd 1e20 12be 1ae3 c63d 0b38 7dbd
00000170: e992 0c3e 58d1 9c3c ea76 693b 86f9 b5bd
00000180: 434c 473d deed 093e 6744 103e 6ef8 3abc
00000190: 4504 93bd 14a9 a03d 9597 e73c b669 93bd
000001a0: 259d 163e 6d89 9f3d 2fcc d23d 8046 abbd
000001b0: 7162 d5bc a94f debb 3d93 e1bd 5e01 6f3d
000001c0: b4e5 1b3c 8a6d 093e ec76 49bd ea6b a33c
000001d0: 449b fdbd 2623 cebc 9e23 bbbc b3c0 033e
000001e0: 93e3 833b f238 a3bd 490a 093c 3f9b 23bd
000001f0: 9806 553c 380d 233d ab01 bd3c eb6c 0a3e
00000200: 3947 69bc 144a d53d 88a9 7a3d 9176 58bc
00000210: 8826 1f3e a086 febd fced 3abd 35fc a23d
00000220: c0af 513d f25b 05be 75e4 553d 3aaa 0fbe
00000230: 934f 6cbd 15b8 debd faa8 49bd f213 e1bd
00000240: 2ff3 3d3d 3562 26bd 1766 153e a949 1b3e
00000250: 3697 8d3d f838 e83d 66e3 33bd 61dd d0bc
00000260: 6b47 06bd 4a62 ed3d 8596 3ebb 5d76 0b3e
00000270: d7ac 7e3c 6310 153e ef73 f13d 9e48 94bd
00000280: 01ee e7bd c8ab d53d a198 d0bd 8798 10be
00000290: 963a a73d e750 b03d 42ca a0bd 35af 16bd
000002a0: 576d ecbd 09cc 823d d788 3dbd 4744 e73d
000002b0: 8cd8 4e3d 0393 18bd 8902 a73a eb8a eabb
000002c0: 239d 18be 83d9 063d 61f5 823d c362 da3d
000002d0: 6507 11bc 05fa fb3c 36ca 03be 2517 00be
000002e0: 80b6 37bd 7e19 933d c5f0 1a3e 0788 08be
000002f0: 68fa 863b 888b 043e 34a3 1e3d 3c78 83bd
00000300: e5db eebc e51e ba3d 425c 793d dc1b 883d
00000310: f272 ea3c 8e1c b23d e005 a93d 6e55 d43c
00000320: a546 aabd 97a9 9cba 3e6d 3fbd e932 8e3c
00000330: cc61 6d3d c033 91bd 4922 12be 6496 dd3c
00000340: 1279 fa3c b1f1 4a3d 4375 debd 0cc0 623b
00000350: f330 85bd 21d9 aabc 5f5a c6bd 5ab8 0f3e
00000360: b4ff b1bd 17c7 b9bd 46d2 a9bd 386d 043e
00000370: 8fb3 e6bd 46e4 1bbd 5324 02be 0710 0c3e
00000380: 0ea5 e7bd 0a11 033d c390 f6bd 1792 97bc
00000390: acae 62bd 391f 993c 73ba 193e 6faf 523d
000003a0: 30c3 03be e829 10be ecfc f8bc ac78 e1bd
000003b0: 1b6a 93bc 9c64 0e3e 0a37 1a3e 1af3 423d
000003c0: 5588 f2bc 14e5 063e f74f e53b 7b38 08bd
000003d0: eb44 4c3d f7b0 f7bc 8624 afbd 8016 ffbd
000003e0: 7a70 173e 1788 20bd a3dd 363d 7368 aabd
000003f0: a1a1 283e b8d1 8dbd e8a5 3fbd 5068 9dbd
0.009537752 0.058451727 -0.13636863 0.06929568 -0.11876148 0.028088855 0.113035 -0.11033437
0.12873414 -0.053506445 -0.14923447 0.028607456 0.14035298 -0.008207873 0.021536494 -0.053546697
0.088089235 0.041805863 -0.054429702 -0.08780528 -0.035535123 -0.0393497 0.094516315 -0.01069206
-0.12512223 0.12627272 0.07819232 -0.14205989 -0.0004289009 0.07348434 -0.028329227 -0.15544794
-0.08192544 -0.0683604 0.0075259577 -0.03132608 -0.018319791 -0.036794327 -0.1366452 -0.04447177
0.12545682 0.12923901 -0.07918814 -0.042832095 -0.10935967 0.0138010485 0.009753523 0.12027285
-0.03561622 0.14883684 -0.043640584 0.041365635 0.10934248 -0.018345652 -0.013024557 -0.047914185
-0.11229521 -0.11158384 0.09711844 -0.037467353 0.08193157 0.12301205 -0.027737252 -0.09927337
0.11116548 0.094176754 0.029467855 0.06605159 0.0443592 0.06568204 -0.09321217 0.124475956
0.026348425 -0.109515116 0.06647582 0.09873069 -0.12684895 0.02008871 -0.14164189 -0.08968089
-0.114941664 -0.11210124 0.11141049 0.09158708 -0.030292239 -0.0155246975 0.16546716 -0.02619505
-0.056416627 -0.14270064 0.09711285 -0.061821025 0.13727917 0.019142792 0.0035623857 -0.088854834
0.048656713 0.13469645 0.14088593 -0.011411769 -0.07178549 0.07844749 0.028270522 -0.07197897
0.14708383 0.07789884 0.10292851 -0.08363056 -0.026047917 -0.0067843986 -0.110144116 0.058350913
0.009515215 0.13420692 -0.04918568 0.019948918 -0.1238313 -0.025163244 -0.022844132 0.12866478
0.0040249317 -0.07969846 0.008364269 -0.039942976 0.01300206 0.03980753 0.023072084 0.13518111
-0.014238172 0.1041452 0.061196834 -0.013211862 0.15542042 -0.124280214 -0.045637116 0.07958261
0.051193 -0.13023356 0.052219827 -0.1402978 -0.057693075 -0.108749546 -0.049233414 -0.109901324
0.046374496 -0.040621 0.14589725 0.15164818 0.06913607 0.11338991 -0.043918036 -0.025496187
-0.032782953 0.11591013 -0.0029081416 0.13619371 0.015544138 0.14557032 0.11789691 -0.07240413
-0.113246925 0.10433155 -0.10185362 -0.14120685 0.08165471 0.08609181 -0.078510776 -0.036788184
-0.115442924 0.06386573 -0.04627308 0.1129232 0.050499484 -0.037249576 0.0012741844 -0.0071576736
-0.14903693 0.03292228 0.063944586 0.106633686 -0.008851861 0.030758867 -0.12870106 -0.12508829
-0.04485178 0.071825966 0.15130909 -0.1333314 0.004119206 0.12943852 0.03872986 -0.06419417
-0.029157588 0.09087924 0.060879 0.06645939 0.028619263 0.086968526 0.08253074 0.025919642
-0.083142556 -0.0011952397 -0.04673504 0.01735826 0.057954594 -0.07089949 -0.14270891 0.02704925
0.030575309 0.0495469 -0.1086221 0.0034599332 -0.06503477 -0.020855488 -0.09685206 0.14035168
-0.086913496 -0.090711765 -0.082920596 0.12932289 -0.11264717 -0.038059495 -0.12709169 0.13677989
-0.113107786 0.03199867 -0.1203933 -0.018502278 -0.05534236 0.018691646 0.15012531 0.051436838
-0.12867427 -0.14078486 -0.03039404 -0.110093445 -0.017994931 0.13905567 0.15060058 0.04759512
-0.029606024 0.13173324 0.006998058 -0.03325699 0.049870413 -0.03023575 -0.08551888 -0.124554634
0.14789 -0.039192285 0.044644963 -0.08320703 0.16467907 -0.06924766 -0.04678908 -0.07685912

conv1.lin_r.bias f4 [256]
00000000: 7c8a 84be cebc 743e 9826 9b3e 6f8d 01bf
00000010: 352a 5f3e 7d63 c5be 3b9e 2abe 59a6 db3e
00000020: 6389 b03e a481 e1be bfba 28be 31ac 8d3e
00000030: 9e33 89be 5293 97be 3071 333e 67ca 63be
00000040: 72a3 6e3d dcf1 f63e e44d ca3a 9b85 d13e
00000050: 6e0e 4c3e ede9 8cbe 4f4f 97be 84e2 a23e
00000060: 96d4 04bf b1de 893e 910b d1be 99a7 0d3f
00000070: e320 61be 880d febe ee1b e8be 87ed 123f
00000080: 0903 f4be 86f6 973d bf57 f13e d9da f7bd
00000090: 462f f23d 6ce9 f7be aab2 f5bc 3a9d d73e
000000a0: 7c35 d23e 57b0 9cbe fcc1 25be 9f48 843e
000000b0: caf2 0abf eeec 84bd e12b b9bd 529a a13e
000000c0: 6fed 223d ccf7 98be 417a 96be a75f 7fbe
000000d0: 77c3 bcbd 1493 c33e c2fd d9be f433 a2be
000000e0: 1c15 873d d855 e1be 1684 0d3f 6c56 9cbe
000000f0: 596c 0f3f 6ff4 f1be 2c95 91be 540d 0dbf
00000100: 0696 09bf 4a0e 10bf 73d0 e6be 4a98 543e
00000110: b79d 183e 966c 08bf 03fe f0be c035 e5be
00000120: 1ff0 ad3d 7660 12bf 275a ed3e 68c1 843c
00000130: e631 ed3e 86e7 a9be b550 9e3e 7c18 943d
00000140: 9870 ae3e 0d49 82bd d561 7abc 3eae c0be
00000150: 9b91 fa3d 67b3 323e d116 a5be b629 5c3e
00000160: 1db8 e63d 64d4 563e 4347 f83e 90e7 b0be
00000170: baed 00bf 0948 e7be 7d88 03bf b66d 34be
00000180: 798c 04bf 2c84 c6be a7da 843e 8ea9 4b3d
00000190: a9c2 083f 648f 02be 6380 28be 7447 b63d
000001a0: 4c03 cf3e 4285 05bf 1e3b 2c3e 8ab8 a93e
000001b0: 4d13 0ebf 29d4 dc3e dd62 78be 27c4 0c3f
000001c0: 761d af3e ee8f babe a128 1ebe f0b5 0a3f
000001d0: 5b47 b2be dfd6 10bf dcf6 0c3f 7098 aebe
000001e0: 680f debe 4de1 c1be e7d6 ff3d 76c2 0a3f
000001f0: e962 1abd 1e53 12bf 9b24 713e 5f3d 62be
00000200: 4474 c5be c567 f83e 441a 863e 47e3 05bf
00000210: dfe9 09bf 4a11 09bf df8f fe3e 92c3 3fbd
00000220: 53f4 c23e ef14 6f3e 68c4 a7be bfc0 003f
00000230: 907a bf3c 36e1 41bd 7698 123e 523a 7dbe
00000240: 70af 583e 99d4 773e c06b 9fbe 2982 ad3e
00000250: 8e0c e23d 7645 15bd 9178 06be 5656 0f3e
00000260: 85e2 053f bb17 fe3e 10d7 85be 873a 71be
00000270: 09c4 1d3d 1996 e13d 938d ff3e 29c0 d6be
00000280: 0c41 9a3e 7f4b ac3e 8f74 48be 3ccb 5abe
00000290: f433 d5be aa19 c3be 0960 903e 1b1a ed3e
000002a0: 8434 9dbe 1649 dc3d 03a0 04bf bfe2 0dbf
000002b0: bfbc c03e 51f6 6cbe 5b3d 933d 1d75 fb3e
000002c0: 7f89 0f3f 6f40 883e 27f0 7cbe bc5a 923e
000002d0: ec52 873e 3f3d c0bd 4a95 153e 8274 e5be
000002e0: 9a92 b83e a758 49be f20b 2c3e 0306 f8be
000002f0: 0e5c d6be 4fd4 773e 9424 44be 8f5b e7bb
00000300: b11c 903e 4125 07bf 4df3 ee3e 152a 9a3e
00000310: 4bd1 6b3e e1c6 92bc cfa9 7dbe 5c99 04bf
00000320: b2ed 67bd 7409 fcbd 97a4 07be 6951 25be
00000330: a847 d1be 34f3 e43d be12 ba3e f1ae 8d3d
00000340: 9caa cebe c0ef 12bf 621d d03b ba5b 12bf
00000350: 9511 313e 2411 03bf d935 5b3c f385 f93d
00000360: 16be f93d 7187 253e 2397 a8be d771 babb
00000370: bda9 8e3e 2f2c 923d cf3a 2abe 58f8 5e3e
00000380: 1dca b53d b34a a4be 215f ea3c e417 75be
00000390: 1751 0e3e 75b2 b23e 6d34 03bf 76d5 ecbe
000003a0: 96c3 a6be 63b0 d4be 7c49 d4be a986 703d
000003b0: 9ed3 b03d 7e46 10bf 8a9a 0a3e 97e0 f7be
000003c0: 70f5 c13e f6ec dfbc 5a82 08bf fc6e 8d3e
000003d0: f5e6 813e 5e3d ad3e 9b40 0cbf 07c8 16be
000003e0: 75dd ed3e f0ad d6be d8b2 093e e846 a13e
000003f0: ce5b ec3d 8a9f e53e a8f0 3dbe 543f a03e
-0.25886905 0.23900148 0.30302882 -0.50606436 0.21793444 -0.38552466 -0.16661923 0.4290035
0.34479818 -0.4404422 -0.16477488 0.27670434 -0.26797193 -0.29604584 0.17523646 -0.22245179
0.058261342 0.482314 0.001543459 0.40922245 0.1992738 -0.2752222 -0.29552695 0.31813443
-0.5188688 0.26927713 -0.40829137 0.5533386 -0.21985202 -0.496197 -0.4533381 0.5739369
-0.47658566 0.074200675 0.47137257 -0.12102289 0.11825423 -0.48420274 -0.02999242 0.42112142
0.4105643 -0.30603287 -0.1618728 0.25836655 -0.54276717 -0.06490503 -0.09041572 0.3156305
0.039777216 -0.29876554 -0.29390147 -0.24938832 -0.092169695 0.3819815 -0.42576414 -0.31680262
0.06595823 -0.44010806 0.5527967 -0.30534685 0.560247 -0.472568 -0.28434122 -0.5509846
-0.5374454 -0.56271803 -0.4508091 0.20761219 0.14903913 -0.5329069 -0.47068796 -0.4476757
0.08493065 -0.5717844 0.46357843 0.016205505 0.46327132 -0.3318445 0.3092095 0.072312325
0.34070277 -0.063615896 -0.015282114 -0.37632936 0.12234803 0.17451249 -0.3224397 0.21500286
0.112655856 0.20979458 0.48491868 -0.34551668 -0.5036274 -0.45172146 -0.5138014 -0.17619976
-0.51776844 -0.38772714 0.25948068 0.049722247 0.5342203 -0.12750012 -0.16455226 0.08900347
0.40432203 -0.5215646 0.16819426 0.33148605 -0.554982 0.43130615 -0.24256463 0.54986805
0.34202164 -0.36437935 -0.15445186 0.54183865 -0.34820065 -0.5657787 0.5506418 -0.34100676
-0.4337113 -0.37867203 0.12492161 0.54202974 -0.037691984 -0.57158077 0.2354912 -0.22093724
-0.38565266 0.4851667 0.26191914 -0.5229992 -0.53872484 -0.53542006 0.4971914 -0.04681737
0.3807703 0.2334783 -0.32767034 0.5029411 0.023373872 -0.04733392 0.14315972 -0.24729279
0.21160674 0.24202193 -0.31136894 0.33888367 0.11037551 -0.036443196 -0.1313193 0.13997778
0.52298766 0.4962748 -0.26140642 -0.23557483 0.03851703 0.11014957 0.499127 -0.41943482
0.30127752 0.3365135 -0.19575714 -0.2136659 -0.416412 -0.38105518 0.2819827 0.4630898
-0.3070413 0.107561275 -0.5180666 -0.5542411 0.37644002 -0.23140837 0.07189437 0.49112788
0.5606918 0.2661166 -0.24700986 0.2858485 0.26430452 -0.09386682 0.1460773 -0.4481545
0.36049348 -0.19662724 0.16801432 -0.48442087 -0.41867107 0.24202083 -0.19154578 -0.007060475
0.2814689 -0.5279122 0.4667 0.3011023 0.23029058 -0.017917098 -0.24771808 -0.5179651
-0.05662317 -0.123064905 -0.1324638 -0.16144337 -0.40874982 0.111792 0.36342424 0.06918133
-0.4036454 -0.5739708 0.006351159 -0.57171214 0.17291863 -0.5119803 0.0133795375 0.12183752
0.12194459 0.16164948 -0.32927808 -0.0056898403 0.27863875 0.071373336 -0.16623996 0.21774423
0.08876441 -0.3208824 0.028609814 -0.23934895 0.13898121 0.34901777 -0.5125187 -0.46256608
-0.32571095 -0.41540822 -0.41462314 0.058722172 0.08634113 -0.5635756 0.13535514 -0.48413536
0.37882566 -0.027334671 -0.533239 0.27623737 0.2537152 0.33835882 -0.5478608 -0.14724742
0.4645802 -0.4192958 0.1344713 0.3149941 0.11540948 0.4484828 -0.18548834 0.31298316

conv2.att f4 [1, 2, 64]
00000000: 864b 89be f3e0 ffbc f96c 48be 6dae 69bd
00000010: 37ed 0c3d 4dc5 83be 3767 43be 0f59 9e3c
00000020: e8bb 1ebe 4d6f d4bd c400 3e3e f030 3a3d
00000030: 16db 533e 98fb d1bd 07d4 933e 31b8 573e
00000040: c1a9 183e 62de 8cbe a104 82be b42d 233e
00000050: a1bb bbbd 39b7 fdbc 8adc 63be 5308 7b3d
00000060: 637b bdbd 0fab cc3c 5295 3a3e a7cb 253e
00000070: c44a 873e 938f 733e 657c 4c3c 1b44 6cbe
00000080: 2f82 7fbe ede0 51bb a64c a73d 0db1 383e
00000090: cfe5 8bbc eeba 62be bb2e b33d 4060 da3d
000000a0: 3f82 163e 525d eabd 235c 3ebe 2da0 6d3d
000000b0: c945 38bd f056 8cbe cb8f 64be 28f7 71be
000000c0: b778 783e f8d5 663d 4afc 093d b4fb 8e3e
000000d0: 403a 353e 346d 96be de3c 3ebe 6846 74be
000000e0: e292 433d a063 1bbe 19f3 e53d 3e5a 99be
000000f0: ac49 84be 454e cdbc d628 923e 1309 953e
00000100: ae7e 4abe c871 3a3e 18d4 7bbe ab55 4abe
00000110: bedd 6e3d a16c 5d3e 138a 3ebe 00f3 293e
00000120: 22ff 3bbd 4b49 923e b546 48bd f82d 2abe
00000130: cca1 0ebd a9de d33d f5f7 873e 0d55 8cbe
00000140: 8d6d 573d 8059 c2bc 3695 753e ceb6 f7bd
00000150: 3ff2 e93c 1874 e73d 6e0b c9b8 fdff 603c
00000160: 5a0f e9bc 66f3 4a3e 4d82 cb3d 3758 8cbd
00000170: fb8e 24bd fc0c ce3d ae9d 903e dd0c 323b
00000180: 5d48 193e cf05 153e c94d 483d 6e92 4fbe
00000190: 8874 173e 0a71 8cbe 8104 11be 2fdf 01be
000001a0: 3a8e 363e 0bbf 473c f571 973d 7955 45bc
000001b0: bb9b 6cbe f631 8dbe a91a 1cbe 09ad 5f3e
000001c0: ef4b 44bc bb82 34bd 154d 2dbe 6bad 9bbe
000001d0: a19f 54bd 54eb 76be 7db5 e1bd 175b 3dbd
000001e0: 444e 4d3e 7027 b63d 6438 efbc 6180 833e
000001f0: 9f54 ba3d 5c42 4bbe a3fc 013d 2777 c53c
-0.26815432 -0.031235194 -0.1957282 -0.05705111 0.034405913 -0.25736466 -0.19082342 0.019329576
-0.15501368 -0.103727914 0.1855498 0.045456827 0.20689043 -0.10253066 0.28872702 0.21066357
0.14908506 -0.27513415 -0.25394157 0.15935403 -0.09166647 -0.030971156 -0.22252098 0.061287235
-0.0925205 0.02498391 0.18221024 0.16190968 0.2642423 0.23785238 0.01248083 -0.23072855
-0.24952005 -0.0032024935 0.081689164 0.1803629 -0.017077355 -0.2214162 0.087491475 0.106628895
0.14698122 -0.11443581 -0.18589835 0.058014084 -0.044988427 -0.27410078 -0.22320478 -0.23629439
0.24264799 0.0563564 0.033687867 0.2792641 0.17698002 -0.2938019 -0.18577906 -0.23854983
0.0477475 -0.15174723 0.11228008 -0.29951662 -0.25837457 -0.025061736 0.2854678 0.29108486
-0.19774887 0.18207467 -0.24592626 -0.19759242 0.05831694 0.2162347 -0.18607359 0.16596603
-0.04589761 0.28571543 -0.048895556 -0.16619098 -0.03482227 0.103452034 0.26556364 -0.2740864
0.05259471 -0.023724318 0.239827 -0.12095414 0.028557895 0.1130144 -9.586556e-05 0.013732907
-0.028449703 0.19819412 0.09936962 -0.06852763 -0.04017542 0.1006107 0.282453 0.0027168312
0.1496901 0.14552997 0.048902307 -0.20270702 0.14790547 -0.27429992 -0.14161874 -0.12682794
0.17827693 0.012191544 0.073947825 -0.012044304 -0.23106281 -0.2757718 -0.15244545 0.21843351
-0.011980995 -0.044069987 -0.16923936 -0.30405745 -0.051910046 -0.24113208 -0.11020944 -0.04622945
0.20049387 0.08894241 -0.029201694 0.25683883 0.090981714 -0.19849533 0.031735074 0.024104668

conv2.bias f4 [64]
00000000: b0d7 19bc c1c9 803c 2a14 6dbc a775 43bc
00000010: 1e27 9f3c 1cdc ea3c 8e57 103d b399 e03c
00000020: 225a 48bc 10f2 b53c 6e3b 8abc b57b 61bc
00000030: 03cf 24bb f568 19bc deae b53c 7864 25bc
00000040: 5392 1bbc 3486 f73c c62f 623c b92e 2fbc
00000050: 66fd 55bc 444b 053d 10fb 453c d6be e53c
00000060: eab4 4cbc a77c 71bc 0f3b aa3c 290f eb3c
00000070: ed8e b4bb 39d5 ebbb 1cda 3ebc f568 f33c
00000080: ef50 df3c 0771 8ebc 03e5 ccbb b85c 18bc
00000090: 2a16 693c f231 17bc 853a 3cbc 6af4 d13c
000000a0: c5ef 1e3c 7880 dd3c 0000 0000 ee3a 063d
000000b0: c1ff d5bb 0000 0000 f12a 003d 4e77 fbbb
000000c0: 56e4 673c 8454 e5bb da12 dd3c 862a f0bb
000000d0: 6b95 f93c d3d4 be3b ddf3 2ebc 780b f23c
000000e0: 817a c13c a261 eabb 84ea f13c 605a 8dbc
000000f0: 3441 1a3d 9efe 02bc 8e4f 98bc 3d86 0ebc
-0.009389803 0.015721204 -0.0144701395 -0.011929906 0.019427832 0.02866941 0.03523975 0.02741704
-0.012228521 0.022210151 -0.016874041 -0.013762404 -0.0025147803 -0.009363403 0.02217811 -0.010094754
-0.009495336 0.03021536 0.013805335 -0.010692292 -0.013060903 0.032542482 0.012083784 0.0280451
-0.012494305 -0.014739192 0.020780114 0.028693752 -0.005510202 -0.007197049 -0.011648681 0.029713133
0.027260272 -0.01738788 -0.0062528863 -0.00929945 0.014226476 -0.0092282165 -0.0114885615 0.025629241
0.00970072 0.027038798 0.0 0.032771043 -0.0065307324 0.0 0.031290952 -0.0076741343
0.014153561 -0.0069986004 0.026986528 -0.007329288 0.030466756 0.0058237105 -0.010678259 0.029546484
0.023617985 -0.007152752 0.029530771 -0.017255008 0.03765984 -0.007995276 -0.018592622 -0.008698997

conv2.lin_l.weight f4 [128, 256]
00000000: 8e5b 03bc 2cbf 7dbc 1db1 35bd 7cbe a13d
00000010: 288d ae3d 0dda 7b3d 19e3 88bc 32b5 f53d
00000020: 4951 66bd 7db2 e6bd 9063 aabd 6238 ae3d
00000030: 5685 8f3c 7dc5 cdbd d604 c03d 198e c4bd
00000040: 0f5d 86bc db6c a5bd faad 2abc 969f 5d3d
00000050: 91ae a1bd 9ceb 763a 2dad 0fbd 7018 04bd
00000060: 32cb 0ebd fa9a d53c 2600 f0bc b4bc e73d
00000070: b147 d1bd d340 07be 8add ca3d 80a0 7dbd
00000080: 0bf7 95bc 6620 ecbd f239 983d a6d7 da3a
00000090: e4df 773d 6e1d f93c 85b9 4a3d 9690 a1bb
000000a0: 5474 eebd ddb0 9cbd b93d d4bc daf2 643d
000000b0: ccba 50bd 0b43 e73d 0dce 01bd 3196 0cbe
000000c0: 3271 0d3c 3944 b33d 42c4 9ebd e998 06be
000000d0: eae2 d3bd e09a 59bd 16ca a53d 1a4e 263d
000000e0: 8d43 713c e24b da3d a88c bdbd 88a6 d23c
000000f0: b4f1 37bd b7d4 123d aa31 c03d 6c0a 6bbc
00000100: a2d4 993d fc16 553c dbd8 833d e24c dd3d
00000110: c744 aebd 0554 dabd 6e33 7c3d 7c7c fb3c
00000120: 7cc1 8abd f61f 29bd 324c 84bb 56bc 843c
00000130: a28b 1bbd e370 69bd 5890 563d 1e92 c5bc
00000140: 3895 d53d d40f fe3d b6cd afbd 3792 a7bd
00000150: 5f63 ec3d 4051 b93d 0184 a1bd c3ca 7b3d
00000160: 2ee4 963d c514 d5bd 8cba cb3c 42a8 a83d
00000170: 7ef3 ffbd 9ad3 26bd be7a 13bc 8e0a 873d
00000180: ba9d b7bd e012 82bd 4e29 b4bb 343f 283d
00000190: ceef 89bd 75b5 c0bc 7cd9 b7bd e672 993d
000001a0: 9498 5fbd a3f1 f43d f5cd c93c 1e8a ee3d
000001b0: c263 e73b 8146 97bd bb6b b8bd 3cc9 533c
000001c0: 9adf 9b3b ce4b efbd 16ce 1dbb c9aa 3cbd
000001d0: adad 13bd cc1f acbd a08f 453d 18cf b63d
000001e0: 6e0a c13d d330 bfbd b91d 8f3d 2798 b5bd
000001f0: 4855 e5bd 652f 9e3d e3ae bc3d a7e9 d4bd
00000200: dd4c bf3d fa75 b1bc bcd3 583d d5c7 97bd
00000210: 6cf4 d83d fc61 c6bd 26d9 8bbc b24a 31bd
00000220: 196d dd3d 8417 423d d6db 163d d4a9 ec3c
00000230: 3a29 6c3d a4f4 59bd f69b babd a4ba 413d
00000240: 3c44 0fbd 3368 9b3d 4279 24bc 943a e33d
00000250: 5b48 813d b0c7 1a3d 5ac6 fe3d 834a 71bd
00000260: 5f34 ac3d 1f7c d7bd 6a14 cebd ec03 acbd
00000270: 7a1a f7bd d553 24bd e644 e1bb 1a3b 713d
00000280: 6dd0 9cbc 7e5a 0dbd bcb1 e9bc a026 483d
00000290: 28d5 93bb 70b0 b2bd 4e3b bdbb 148a 513d
000002a0: 0031 673c 0156 babd 802d 59bd c50f cbbc
000002b0: af8e afbd 5e1d 26bd 9cdc d1bc 3e55 34bd
000002c0: b1e5 a7bd f997 d13d bbea 9c3d 01c1 5b3d
000002d0: c2ba 983b 9c4e 68bd 4e01 843c d418 cabd
000002e0: 29d2 cabd d495 c2bc 3075 c13d 1240 d33d
000002f0: 42cf f23d 349a b9bd 6c87 fbbc ffba 85bc
00000300: a322 8a3d 34fa 6ebd 3101 af3b dcff e1bb
00000310: ec56 52bc 6c69 f33c f507 fdbd 66fa 84bd
00000320: db6f 4d3d 51ef 52bd 8a2c d43d e85d 083d
00000330: f006 963c 2a8e bdbd bba3 613c 4ee6 b73a
00000340: 9ed5 a1bc aec9 cdbd 4ef6 b9bd 7a0a 8fbd
00000350: d8d3 263d cc5b da3c ea3f 3a3d f8da 933c
00000360: 3eba c6bd c0b8 973c 5c35 083d a952 a5bc
00000370: ed90 833b e967 e53d dc8c e5bd 7e60 21bc
00000380: 2e9e 8f3c 3d51 19bd 2055 f83d 6251 873d
00000390: ff8d 293c 563c 853d 6a2a 053d ecc1 69bd
000003a0: 0e5e 503d c620 cdbc 4b42 ab3d 3571 933d
000003b0: d6c6 dabd b428 39bc 34b6 bc3d 5e99 a33d
000003c0: 6a40 04bd fe27 b43c 2761 58ba d2d9 0a3d
000003d0: 9ed4 8abd 0a9e 203d 1ac8 3bbd 4c29 d0bd
000003e0: d56a f0bc 5ebb 43bd 0791 573d be2b 0a3d
000003f0: d77b a33c 9c77 403a d02b c23c c5e1 273d
-0.008017434 -0.015487473 -0.04435836 0.0789766 0.08523017 0.061487246 -0.016709851 0.11997451
-0.056229863 -0.11264513 -0.08319771 0.08506848 0.017519634 -0.100474335 0.093759224 -0.095974155
-0.016401796 -0.08077403 -0.010417456 0.05410727 -0.07894624 0.0009419264 -0.035077263 -0.032249868
-0.03486175 0.026074875 -0.029296946 0.11315289 -0.10218752 -0.13208322 0.099055365 -0.061920643
-0.018306276 -0.11529617 0.07432927 0.0016696348 0.060516253 0.030409541 0.04949333 -0.004930566
-0.116432816 -0.076509215 -0.025908338 0.055895664 -0.050959393 0.11292084 -0.031690646 -0.13729168
0.008632945 0.08753247 -0.07752277 -0.13144268 -0.10346015 -0.053126216 0.080951855 0.040601827
0.014725578 0.10659005 -0.09255344 0.025714174 -0.04490824 0.035847392 0.09384473 -0.0143457465
0.075112596 0.013005968 0.06437846 0.1080568 -0.08509212 -0.10660557 0.061572485 0.030699007
-0.067751855 -0.041290246 -0.0040374035 0.016203087 -0.03797496 -0.056992423 0.05238375 -0.024117526
0.10428852 0.12405363 -0.08584158 -0.08182185 0.11542391 0.090487 -0.07886506 0.061472666
0.073677406 -0.10404352 0.024869226 0.08235218 -0.12497614 -0.040729143 -0.009001432 0.0659381
-0.08965631 -0.06351256 -0.005498088 0.0410759 -0.06735192 -0.023524025 -0.08977029 0.07492618
-0.05458887 0.11960151 0.02463434 0.116474375 0.0070614526 -0.073864944 -0.09004923 0.012926396
0.00475688 -0.116843805 -0.0024079136 -0.04606131 -0.036054302 -0.08404502 0.048232675 0.08926219
0.094258174 -0.09335484 0.06988091 -0.088669114 -0.11197907 0.077238835 0.092130445 -0.10396128
0.093408324 -0.0216627 0.0529363 -0.07411162 0.10593495 -0.09686658 -0.017071318 -0.043284126
0.10811824 0.047385707 0.036830746 0.028889574 0.057656504 -0.053211823 -0.091117784 0.047297135
-0.034977183 0.07588234 -0.010038676 0.11095157 0.06312629 0.037788093 0.12440176 -0.05890895
0.084084265 -0.10521721 -0.100624874 -0.083991855 -0.12065597 -0.04011901 -0.0068746684 0.058894254
-0.019142354 -0.03451013 -0.028527133 0.04886496 -0.004511494 -0.08725059 -0.005774892 0.051157072
0.014110804 -0.09098435 -0.053021908 -0.024787793 -0.085721366 -0.04055535 -0.02561789 -0.044026606
-0.08198107 0.102340646 0.07661959 0.05365086 0.004660935 -0.056715593 0.016113903 -0.09868017
-0.09903366 -0.023753084 0.0944618 0.10314955 0.118559375 -0.09062615 -0.030704223 -0.016324518
0.06744888 -0.05834408 0.005340718 -0.006896956 -0.012838107 0.029713355 -0.12355033 -0.06493072
0.0501555 -0.05149776 0.10360058 0.03329268 0.018313855 -0.09255631 0.013771947 0.0014030428
-0.01975518 -0.10048233 -0.09080182 -0.0698442 0.040729374 0.0266551 0.04547111 0.018048748
-0.09703492 0.018520713 0.033254012 -0.020181017 0.0040150792 0.1120146 -0.112085074 -0.009849666
0.01753148 -0.03743099 0.12125611 0.066073194 0.010348796 0.06505649 0.032511152 -0.057069704
0.050870948 -0.025040042 0.08362254 0.07199327 -0.10682456 -0.011301208 0.0921444 0.07988237
-0.032287993 0.021991726 -0.0008254223 0.033899136 -0.06778835 0.039213218 -0.04584513 -0.10164127
-0.029347816 -0.04778611 0.052628543 0.033733122 0.019956512 0.0007342042 0.023702532 0.040986795
