gnn_best.pth (torch, 297338 bytes, 16 tensors)

conv1.att f4 [1, 4, 64]
00000000: 7a9f 803e d9b8 9d3d 9048 d43d 1df6 f83d
00000010: 9a2a a73d 80b7 f5bc d48f 01be 81f0 43be
00000020: e405 983d a1b3 9cbd 9399 413e 0461 83be
00000030: 7185 48be 2f1f 80be 07cc 42bd 33d6 62be
00000040: 3f9f cbbd c712 4abd fa2c 6ebe 2f3f 92be
00000050: 44f3 00bd 587e 853d 0375 463e 42f5 7c3e
00000060: f69d 2ebe a4da cebd 1aa8 70be c02d bc3b
00000070: 71ce 85be 0a35 0fbe f553 afbd 0807 86bd
00000080: 0636 1e3d 961b 843e f23f c0bd ebb9 8e3d
00000090: 58b1 70be 19b1 1ebe 6590 f2bd 792a 313e
000000a0: 14f7 57be e052 953c 9cdd 39be 6b46 37be
000000b0: dc92 e5bd df4a a8bc ce40 2f3e 5dd3 4e3e
000000c0: 1b68 87bd 5a5d 89be 8323 293b 2860 1dbe
000000d0: 733e 3e3e b4f7 8b3e e922 6d3d 5692 1abe
000000e0: fcda 9dbd 5b5d 2a3d 5fc7 803e ec53 bcbd
000000f0: 901d 0bbe 1a9b f63c 8e9b 773e c4c5 38be
00000100: b1a1 82bd 10f9 8d3e bb22 6dbe e02c 00be
00000110: f776 8cbc 8cd8 0abe 97d8 cd3d 5e53 82be
00000120: 541c 693e 9b90 703d 19ed 5bbe e06c 8f3e
00000130: bc84 8d3e 5d91 21bb 131d 50bd e4b4 843e
00000140: 90dc 1ebe b310 2abe 1af2 943e 3506 5e3e
00000150: 8441 0cbe f446 82be a7e6 e7bd beeb 8f3e
00000160: 9ded f53d 9946 92bd 7de0 663e 6ea8 4abd
00000170: 1685 9abe a011 1b3e 5e55 85be 2ba2 2c3e
00000180: 72e6 753e c467 73be 0cb6 333e 1a1d 50be
00000190: 55c5 5d3d f0d8 95be 0e93 733e 8725 583e
000001a0: b810 1e3c 93d9 4fbe 31c1 89bd 502b 86be
000001b0: ad17 7a3e 2b38 623e 25b2 513e dc34 20be
000001c0: 8ea8 513d a91f 0dbe 3911 aa3d 14f8 653e
000001d0: 4020 aa3d fd79 573e 29b3 0cbd 5a10 aa3a
000001e0: 17ea 18be 5e65 3cbe 7e0b 1bbe 3d6f 21be
000001f0: f40a 4abd 26ac 3dbe 0c87 85be 3d84 603d
00000200: 504f cbbd f4ad ff3d 1b02 72bd c81e 463e
00000210: 5396 91be efa0 9f3e 68f1 4fbe 3530 a63d
00000220: 108f bcbd 615c 473e 6ac7 89be 5808 503e
00000230: 5a1d 093e 32b5 813e ee0c 7cbe 7e49 68be
00000240: b67b 78bd a695 83be caa2 af3d 5999 7bbe
00000250: a4d3 cdbc ac78 07be a690 533d 5c5f 77be
00000260: 5d66 42be 4486 b23d 77e7 81bd a5f2 a83d
00000270: 3668 983e 6069 4fbe 7700 3f3e da6d 7a3e
00000280: 1a96 38be 92d6 57be 455c ee3d 5409 0dbe
00000290: c8f9 31bd 72fb eb3d 2e0c 84bd ae54 8a3e
000002a0: dfbb 803e 0226 983e 3d88 f0bd 9d69 1a3d
000002b0: a50c 7abe 544c 31be af4c 6c3d 0d94 04be
000002c0: 2055 eabd 8c9f 833d f7df 38be c816 1dbe
000002d0: ee07 4fbe 205a e33d 96c9 003e 5b6e 2dbe
000002e0: 4467 16bc b46d 183d 1d47 5cbd 7175 45be
000002f0: 5770 8d3e 1334 693e 74d3 833e 3f75 e7bc
00000300: 01db 163e a03d 79be 8ee5 963e 07c6 85be
00000310: 9beb 033e c03b 1e3e 07d3 8ebe 406a 723e
00000320: 977b 813e 7086 2d3d 76cf 83be 1619 713e
00000330: e168 843d cd3d c13d 2447 163e 3d39 4f3e
00000340: 880e 2fbe 6406 57be 1132 7b3e 0fbd 8dbe
00000350: fdfc 60be 770f 893d 6dd8 873e 23db 1e3e
00000360: 5649 43be 878f 643e 95c2 293e 4306 ff3d
00000370: ac7d 77be 7f8f 50be a25c 6cbe 9723 6f3c
00000380: ade0 22be 1439 5fbe 90f3 85bd ae8e 53be
00000390: c38c f63d b380 e3bd 5d5e aa3d e011 2e3b
000003a0: 1e52 9c3c ee7e 5abe d529 823e 8201 0f3d
000003b0: 2566 1cbd b583 413e dab0 923e da28 0a3e
000003c0: 711c 713e 8024 d0bd 7984 c9bd e4d4 393e
000003d0: ddd1 2ebd 3bd8 00be fe64 c13d 7963 083e
000003e0: c086 943d 7e23 85be 1508 1dbe 202b 2abe
000003f0: 308d 3d3a 180f 0d3c 6ad2 533e af6a 69bc
0.2512167 0.077012725 0.10365403 0.121563174 0.081624225 -0.029994726 -0.12652522 -0.19134714
0.074229985 -0.07651449 0.1890624 -0.25659955 -0.19582154 -0.2502379 -0.047557857 -0.22152023
-0.09942483 -0.049334314 -0.23259345 -0.2856383 -0.031481996 0.06518239 0.19380574 0.24702933
-0.17052445 -0.10100296 -0.23501626 0.0057427585 -0.26134065 -0.13985077 -0.085609354 -0.0654431
0.03862574 0.25802296 -0.093871966 0.06969055 -0.23505151 -0.15497245 -0.11843947 0.17301358
-0.21090347 0.018227994 -0.18150944 -0.17897956 -0.11209652 -0.020543514 0.17114565 0.20197816
-0.066116534 -0.26829034 0.002580852 -0.15368712 0.1857851 0.2733742 0.05789462 -0.15094885
-0.077077836 0.041592937 0.25152108 -0.09195694 -0.13585496 0.030103255 0.24180433 -0.18044192
-0.063784964 0.27729082 -0.2315778 -0.12517118 -0.01714657 -0.13559169 0.10051077 -0.2545423
0.22764713 0.058731657 -0.21477164 0.28012753 0.2764033 -0.0024653294 -0.050808977 0.2591926
-0.15513825 -0.16607933 0.2909096 0.21682055 -0.13696867 -0.25444758 -0.1132329 0.28109545
0.12008212 -0.07142372 0.22546573 -0.049477033 -0.30179662 0.15143442 -0.26041692 0.16858737
0.24013689 -0.23770052 0.17549914 -0.20323601 0.05414327 -0.29267073 0.23786566 0.21108066
0.009647541 -0.20297842 -0.067263015 -0.2620492 0.24423094 0.22091739 0.20478113 -0.15645164
0.051186137 -0.13781609 0.08304066 0.22457916 0.083069324 0.21042629 -0.034350548 0.0012974844
-0.14933048 -0.18398044 -0.15141103 -0.1576509 -0.049326852 -0.185227 -0.26079595 0.054813612
-0.09927237 0.12484351 -0.05908404 0.1934768 -0.28435 0.3117747 -0.20306933 0.081146635
-0.092069745 0.19468834 -0.26909953 0.20315683 0.13390103 0.25333554 -0.24614307 -0.22684285
-0.060664855 -0.2570011 0.085759714 -0.24570216 -0.025125332 -0.13229626 0.05165162 -0.2415747
-0.18984361 0.087170154 -0.063429765 0.08249406 0.29767007 -0.20255041 0.18652521 0.24455968
-0.18026009 -0.21077946 0.11638693 -0.1377309 -0.0434511 0.11522569 -0.064476356 0.2701773
0.25143334 0.29716498 -0.117447354 0.037698377 -0.24418886 -0.17314273 0.05769032 -0.12947102
-0.114420176 0.064269155 -0.18054186 -0.15340722 -0.20217869 0.11101174 0.12576899 -0.16936629
-0.009179894 0.037213996 -0.053778756 -0.19283082 0.2762477 0.22773771 0.25747263 -0.02825415
0.14731981 -0.24339914 0.2947201 -0.26127645 0.12882845 0.1545248 -0.27895376 0.23673344
0.25289604 0.042364538 -0.25744218 0.23544726 0.064653166 0.09435616 0.14675575 0.20236678
-0.17095387 -0.20998532 0.24530818 -0.27683303 -0.21971507 0.06692403 0.26532307 0.15513282
-0.19070944 0.22320376 0.16578133 0.12452366 -0.24169034 -0.2036724 -0.23082212 0.014595888
-0.1590602 -0.21799117 -0.065405965 -0.20659897 0.12038567 -0.11108532 0.083187796 0.0026560947
0.019082125 -0.21337482 0.2542254 0.034913547 -0.03818335 0.18897898 0.28650552 0.13492146
0.23546006 -0.10163212 -0.0983972 0.18147618 -0.04268061 -0.12582485 0.09443091 0.13319196
0.07252264 -0.2600364 -0.15335114 -0.16618013 0.00072308164 0.008609556 0.20685735 -0.014246627

conv1.bias f4 [256]
00000000: 0000 0000 b8c7 4fbc 7f82 143c 74ef ca3c
00000010: 0000 0000 0000 0000 0000 0000 1e32 c5bc
00000020: a6d5 423b b56b 1ebc 0000 0000 0000 0000
00000030: 314c b53c b93e 8a3c d3fe e73c db58 ad3c
00000040: 0000 0000 510a c53c e44c e13c 9e39 a03c
00000050: d02c f93b ceff bd3c 5f25 cc3c 0000 0000
00000060: 286e adbc 0000 0000 a0bb dd3c a3a8 95bc
00000070: e67f 2b3c d6f2 583d 0000 0000 1bfc d83b
00000080: 15eb d33c 3284 cc3c 0000 0000 2973 c93c
00000090: 0000 0000 0000 0000 0c7a 91bc 14a1 693c
000000a0: 0000 0000 4a79 943c beff d23c ac36 803c
000000b0: 0000 0000 0000 0000 0000 0000 0000 0000
000000c0: 4df0 23bc 0000 0000 0000 0000 0000 0000
000000d0: ff52 e63c 0000 0000 0000 0000 0000 0000
000000e0: b851 80bc 14a0 b4bb 4d41 d9bb 0000 0000
000000f0: 64f4 7ebc 0000 0000 1499 ca3c f6fc b93c
00000100: ea00 5cbc d1a7 c83c f57a 5abb 0000 0000
00000110: 0000 0000 182a 8abc e567 b43c 0000 0000
00000120: 0000 0000 6fbb 9f3c 8a1e d73b 61f8 83bc
00000130: 9829 d13c 0000 0000 3b79 a5bc 0000 0000
00000140: cd0a b83c 8362 c4bc 0000 0000 7629 ba3c
00000150: 0000 0000 7b5d b1bc 4ad1 46bc 0000 0000
00000160: 0000 0000 0000 0000 5a4f 9fbb 0000 0000
00000170: 0000 0000 0000 0000 5886 d13c 0000 0000
00000180: f8e2 bc3b 0000 0000 cd9e 6dbc 6f2d 4a3b
00000190: 589a 71bb 0000 0000 2111 043d e806 a7bc
000001a0: 2942 ba3c 0000 0000 f924 c23c 0000 0000
000001b0: 0000 0000 0008 69bc 0000 0000 2a30 1b3d
000001c0: 0000 0000 0000 0000 0000 0000 4c28 233c
000001d0: 3215 acbb 8968 8f3c 0000 0000 df64 d33c
000001e0: 95c2 d93c 9ed6 df3c c506 313a 676e c93c
000001f0: 0000 0000 0455 a53c 0a3f b63c c869 a0bc
00000200: b6cc 7cbc aa2d a2bc 6c42 9e3b 0838 d83c
00000210: 0000 0000 0000 0000 eff5 a53b b602 d5bc
00000220: 4725 cb3c c6dd 8b39 145e 2bbb c619 0abc
00000230: eda0 ac3c 0000 0000 0000 0000 0000 0000
00000240: 0000 0000 ca53 ac3c b426 5a3c 0000 0000
00000250: 99c6 cdbc f0fa 953a 0000 0000 6786 e03c
00000260: 5326 c43b 842a a83a 0000 0000 9dc3 d93c
00000270: ae8d a43c 12b1 20bc 32aa 95bc 8688 9c3c
00000280: 0000 0000 d92d b03c a3a6 4f3c 37e4 dd3c
00000290: 0000 0000 0000 0000 9b26 bf3c ec54 393c
000002a0: 40a1 d13c 0000 0000 0000 0000 2af9 dc3b
000002b0: 933e 923c 0aef 3cbc 0000 0000 acc9 29bb
000002c0: af33 6abc 5868 e13c bf7a a7bc 0000 0000
000002d0: 4e03 b03c 070b 8f3b d8a5 cd3c 0000 0000
000002e0: a1d9 cc3c 4c76 bfbc a123 31bc af5d d03c
000002f0: 0000 0000 c591 80bc 37c3 913c 0000 0000
00000300: 0000 0000 c4f2 ae3c 0000 0000 6d12 a0bb
00000310: b4a6 b53c ff2e a13b 0000 0000 8f8d 6ebc
00000320: 675c 7dbc 264f b83c 0000 0000 a38d 5aba
00000330: 2dde 9bbc 0000 0000 0000 0000 3b94 a23b
00000340: 0000 0000 d7dd 383c 8d63 4fbc 0000 0000
00000350: e094 ddbc 6f3f c63c 0a85 f43c 8f1c ce3c
00000360: 0000 0000 d88b ed3b f901 2a3b 3a1b 3fbb
00000370: 063c 5f3c 9007 e03c 0000 0000 0000 0000
00000380: 0000 0000 0000 0000 0000 0000 420f 0d3c
00000390: 6367 373c 0000 0000 0000 0000 0000 0000
000003a0: 1c6a debb ba5e ec3c 2068 3a3c 1985 c63c
000003b0: 692d 933c 0000 0000 4cb6 773c a394 d83c
000003c0: 8afb 13bb 9ee9 37bc c1df 29bb f334 ef3c
000003d0: 0000 0000 bf65 c53c 0000 0000 0000 0000
000003e0: 94b7 273c 8b64 1d3c b1ec 5bbb 2c70 8fbc
000003f0: 44b3 e33c 0000 0000 0000 0000 d1ee e63b
0.0 -0.012681894 0.009064316 0.024772383 0.0 0.0 0.0 -0.02407175
0.0029729395 -0.009669234 0.0 0.0 0.022131057 0.016875612 0.028319752 0.021160534
0.0 0.02405277 0.027502485 0.019558724 0.007604219 0.023193266 0.024920164 0.0
-0.02117069 0.0 0.027067006 -0.018268889 0.010467505 0.05296596 0.0 0.00662185
0.025868932 0.02496538 0.0 0.024591045 0.0 0.0 -0.017758392 0.014259595
0.0 0.018124241 0.025756713 0.01565107 0.0 0.0 0.0 0.0
-0.010006023 0.0 0.0 0.0 0.028115747 0.0 0.0 0.0
-0.015663967 -0.005512247 -0.006630099 0.0 -0.015561197 0.0 0.024731196 0.022703629
-0.013427952 0.024494084 -0.0033337448 0.0 0.0 -0.016865775 0.022022197 0.0
0.0 0.019498555 0.00656492 -0.016109647 0.025532529 0.0 -0.020199409 0.0
0.022466088 -0.023972755 0.0 0.022724848 0.0 -0.02165102 -0.012134859 0.0
0.0 0.0 -0.0048617544 0.0 0.0 0.0 0.025576755 0.0
0.0057643615 0.0 -0.014503193 0.0030849834 -0.0036865678 0.0 0.032242898 -0.020389035
0.022736626 0.0 0.02369927 0.0 0.0 -0.014223099 0.0 0.03788773
0.0 0.0 0.0 0.009958338 -0.00525155 0.017505901 0.0 0.025804935
0.026582042 0.027324017 0.0006753023 0.024588777 0.0 0.02018214 0.022246856 -0.01958169
-0.015429666 -0.019797165 0.0048296954 0.026393905 0.0 0.0 0.005064718 -0.02600227
0.024798049 0.0002667738 -0.0026148604 -0.008428996 0.02107283 0.0 0.0 0.0
0.0 0.021036047 0.013314892 0.0 -0.025119113 0.0011442583 0.0 0.027407838
0.005986014 0.0012830053 0.0 0.026582533 0.02008709 -0.009807842 -0.018269632 0.019108068
0.0 0.021506237 0.012674007 0.02708636 0.0 0.0 0.023333838 0.011311751
0.025589585 0.0 0.0 0.00674357 0.017852103 -0.011531601 0.0 -0.002590756
-0.014294549 0.027515575 -0.020444272 0.0 0.02148595 0.0043653282 0.025103495 0.0
0.025006117 -0.023371838 -0.010811717 0.025435297 0.0 -0.015694508 0.017793281 0.0
0.0 0.021355994 0.0 -0.004885009 0.022174217 0.0049189324 0.0 -0.014560117
-0.015463925 0.022498678 0.0 -0.00083371456 -0.01902684 0.0 0.0 0.004961518
0.0 0.0112833595 -0.012658012 0.0 -0.027048528 0.02420017 0.029848594 0.025160102
0.0 0.0072493367 0.0025941117 -0.0029160515 0.013625151 0.027347356 0.0 0.0
0.0 0.0 0.0 0.008609595 0.011194083 0.0 0.0 0.0
-0.0067875516 0.028853763 0.011377364 0.024233388 0.01796599 0.0 0.015119147 0.026438063
-0.002258035 -0.011225132 -0.0025920721 0.029200053 0.0 0.024096368 0.0 0.0
0.0102366395 0.009606491 -0.0033557827 -0.017509542 0.027795441 0.0 0.0 0.007047512

conv1.lin_l.weight f4 [256, 3]
00000000: 47f8 333d 4a14 a03d cfef ecbd 5178 ac3d
00000010: 223a 23bd 7630 253d 8437 1fbe 6ab1 a0bd
00000020: c154 e1bd 3d0d 3dbc 115b 033e a19a d2bc
00000030: 510e 033e aa47 a23d a06b 963d b484 443d
00000040: d073 a9bd 0fed aaba 1bba f3bc 1c41 9dbd
00000050: 0ac3 e23d 6eda a8bd 83eb dbbd ea83 15bd
00000060: cca4 d9bc fa44 c33d e8cb fd3c ceda bbbd
00000070: f267 323c c1f4 b13d 5a7e aabd 6ed0 91bc
00000080: 5660 26bd 2339 423b da8b 513d 26b5 abbd
00000090: e5ce e43d bd38 093d 0581 a0bd a00e f3bd
000000a0: 89c7 af3c 3b00 31bd f932 35be 03c0 943d
000000b0: 5c28 d93d cf4a 3cbd 99cc b53c 8db3 243d
000000c0: 748a acbd 8da7 e4bb e04f b5bd 8695 bbbd
000000d0: b059 c43d 5338 18be aa9d cc3d 3e4f 1abe
000000e0: c2c9 89bb fd1e ba3d 211e a63d 8dbd 04bd
000000f0: dfa9 203e f668 fdbd 94b7 ce3d d8a8 dabd
00000100: fafe 803d ba8a 7f3d f2f3 2ebe c38c 093d
00000110: 45d9 23bd d68f 5f3d 6c28 6dbd a0c5 ccbd
00000120: 7fb3 b13d e7ed 86bb c3c7 a0bd f06b 093d
00000130: 24d5 82bd 66cb 18be 5c58 98bd 1568 b93d
00000140: ac64 ccbc 8e3f 3e3d 9fdc f93b 9482 993d
00000150: a66f 473c 40f8 873d 1ab2 f53d 0f17 343e
00000160: 283d 88bd 4ab4 86bd 844a 0e3e dcc1 363c
00000170: c654 043e 9e61 fd3d 2383 d73d c3d5 3e3d
00000180: 434e 083e c47f 0c3e a5b7 07bd 5524 cc3d
00000190: d4ce 7cbc c530 2c3d 15ab afbd cd0e b23d
000001a0: 3ede 1abe b0c8 e4bc 93ab 39bb 8421 443d
000001b0: d85a 3f3d fd5c 92bd 5110 423d fd23 14bd
000001c0: e028 323d 6790 8f3d 710a 543d 0d88 86bd
000001d0: 04ee 38bc 3adc 1bbe e126 03bd f266 243d
000001e0: c78c 0dbd c73a 42bd d4fb 70bd 7eb7 bc3d
000001f0: 396f 09be a6fb e53d 8d99 e1bd 8f87 10bd
00000200: 6a8d 923d 0bea 84bd 6247 ab3d 302c 3b3d
00000210: 8b29 a5bd 7423 3b3c fc50 f43d 1f14 10be
00000220: 91f8 093d 2818 2b3d 922a 853d 11d5 133e
00000230: d339 d7bd 03ba d2bd 7592 133c f85a 0cbe
00000240: 1aa3 0e3d af85 d93d 2e46 e73c 2dc5 b93d
00000250: 91e5 7abd 3eed 0dbe 0af6 cb3d a86f 0ebd
00000260: b67c 163e 7ca2 a23d d64f 4bbd 908b 8abd
00000270: 2761 27be 39f2 6b3d 2742 d03d 8300 babc
00000280: 24d9 5c3d aa2a 1a3e e3e9 203d 553b 60bc
00000290: 1b48 963c d04a edbd 0e86 173c 51c6 1f3d
000002a0: 8669 d1bd 426f d33d e7c8 023e 3d78 3ebd
000002b0: d457 383d c52f 08bd e98b 08bd bbfc 2d3e
000002c0: f227 ecbd 28be 79bd 4d5a 23bd 9e05 babd
000002d0: 51a6 493d 0f44 083e 0f82 fabd 6fe4 c9bc
000002e0: f4f5 073e 9745 79bd e0eb c0bd 6532 d63d
000002f0: da5a 653d 497c 783c 8746 933d 48e0 1abe
00000300: a783 8b3d acda 423d e345 c5bd 7aee 1cbd
00000310: 26eb 87bd bc7f 743a 18b4 44bd da0c a3bd
00000320: 4874 223d c4f9 34bd 6b15 8e3d 9998 6bbd
00000330: 78ed 37bd fefd 883d 073b 403c b7d4 2d3d
00000340: 68e0 ba3d af16 f4bd 47f0 90bd dafe 69bd
00000350: adcc a53d c0dc d3bc e86b 10bd a8f7 cdb8
00000360: 6a29 263d 16be 7dbd 31f5 c13b 8187 09be
00000370: bf97 b53d 730a 5bbd 9c09 9fbd 8d21 32bc
00000380: 88e7 f3bd 5f3e c93d cf1a e7bc fe86 d3bd
00000390: 3839 26be a37a ad3d cae6 bbbd 05bb 32bd
000003a0: ecca d6bd 2d0f df3d f873 003e e21d b83d
000003b0: 0137 203e 7b77 03be 33d0 9dbd 48d6 22bd
000003c0: 0c6b acbd 0877 653d a24f 76bd 3e86 fcbd
000003d0: c1e1 0c3d 3df8 053c 9f75 923d 3538 d5bd
000003e0: 6114 dabb 3960 c7bd c542 9cbc 217d 843c
000003f0: e138 163e 6d84 ccbc 95fd 793d 24fb 073e
0.043937948 0.0781637 -0.11569177 0.08421386 -0.03985036 0.04032942 -0.15548521 -0.07846339
-0.11002494 -0.011538801 0.12827708 -0.025708498 0.1279843 0.07923825 0.073447466 0.047978118
-0.082740426 -0.001304062 -0.029751828 -0.07678434 0.11072357 -0.08244787 -0.1073828 -0.036502756
-0.02656784 0.095346406 0.03098102 -0.09172593 0.01088904 0.08689261 -0.08324881 -0.017799582
-0.040619217 0.0029636107 0.051158763 -0.08384161 0.111722745 0.033501375 -0.078371085 -0.11868024
0.02145745 -0.04321311 -0.17695226 0.07263186 0.10603401 -0.04596978 0.022192286 0.040210295
-0.08424845 -0.0069779814 -0.088531256 -0.09159379 0.09587419 -0.14865236 0.099910095 -0.15069291
-0.0042049596 0.09087942 0.081112154 -0.032407332 0.156898 -0.12373535 0.100936085 -0.10676736
0.06298633 0.06238816 -0.17085245 0.033581506 -0.040002126 0.054580532 -0.057899877 -0.099986315
0.08676814 -0.0041177156 -0.078506015 0.033550203 -0.063883096 -0.1492134 -0.07438728 0.09053055
-0.024950348 0.04644733 0.007625177 0.07495609 0.012172615 0.06639147 0.11996861 0.17586921
-0.0665229 -0.06577356 0.13895613 0.011154618 0.12922964 0.123721346 0.10523059 0.046590578
0.13311104 0.13720614 -0.03313412 0.09967867 -0.015430171 0.042038698 -0.08577553 0.08694229
-0.15123841 -0.027927727 -0.0028331026 0.047883525 0.046717495 -0.07146642 0.04737884 -0.036167134
0.043496013 0.070099644 0.05176777 -0.065689184 -0.011287216 -0.15220729 -0.0320195 0.04013724
-0.034558084 -0.047419336 -0.058833912 0.09214686 -0.13421334 0.11229639 -0.110156156 -0.03528553
0.07155879 -0.06489953 0.083632246 0.045696437 -0.08064564 0.011422027 0.11929509 -0.14070176
0.033684317 0.041771084 0.0650226 0.14436747 -0.10509076 -0.10289385 0.009007086 -0.13706577
0.034823515 0.10621201 0.028231706 0.090708114 -0.061254088 -0.13860032 0.099590376 -0.034774452
0.14696011 0.07941148 -0.049636684 -0.06764901 -0.16345654 0.05760405 0.101688676 -0.022705322
0.05391802 0.15055338 0.03928555 -0.013686021 0.01834493 -0.11586535 0.00924827 0.03900749
-0.10225205 0.10323955 0.1277195 -0.046501387 0.045005634 -0.03324868 -0.033336554 0.1699094
-0.115310565 -0.060972363 -0.03988104 -0.09083103 0.049230877 0.13307212 -0.12231838 -0.024645058
0.13277417 -0.06085738 -0.094199896 0.10458831 0.055994846 0.015166351 0.071911864 -0.15124619
0.0681222 0.047571823 -0.096324705 -0.038313366 -0.06636648 0.0009326895 -0.048023313 -0.079614356
0.039661676 -0.044183508 0.06937679 -0.057518575 -0.044904202 0.0668907 0.011732823 0.04243919
0.09124833 -0.11918389 -0.07077079 -0.05712781 0.080956794 -0.025862098 -0.035259157 -9.821291e-05
0.04056684 -0.06194886 0.0059191217 -0.13430597 0.08866834 -0.053476762 -0.07765505 -0.010872257
-0.119093955 0.098263495 -0.028211026 -0.10328482 -0.16232765 0.08470657 -0.09174879 -0.043635387
-0.10487923 0.108915664 0.12544239 0.08990075 0.15645982 -0.12838547 -0.077057265 -0.039755136
-0.08418855 0.05602172 -0.060134538 -0.12330292 0.034394983 0.00817686 0.07151341 -0.10411111
-0.0066552614 -0.0973515 -0.019074807 0.016172947 0.14670135 -0.02496549 0.06103285 0.13279396

conv1.lin_l.bias f4 [256]
00000000: 7a3a b7be 57f8 aebd d0b6 35be 04fe d53e
00000010: b047 edbe 38a3 06bf 8cde c4be 6048 223e
00000020: 7c4d 413d d32a e23e 558d 05bf 494c d8be
00000030: 6847 a73e 336a c03e e1e8 123f a4a5 d03e
00000040: 501a 52be dbac 143f 9745 083f 616b 363e
00000050: c45e de3d 3a50 b83e 80fc 033f 92de 69be
00000060: 0d9f 2e3c 514d 28be de41 a63e 9d90 7b3d
00000070: 2cbb 0e3f 1946 89bd 1d84 5cbe e8a3 93bd
00000080: b0a0 b03e 9ac4 183e a67d a5be b068 0f3f
00000090: a3fe b5be 2e1f a7be 806b fe3e dae5 cb3e
000000a0: 764b 64be 1df5 093f 6ead 533e 34b9 273e
000000b0: e445 f6be 5139 cbbe b7f2 01bf 27f0 e0be
000000c0: 7d14 c2bd b2f2 e3be 15f9 0dbf df8b 47be
000000d0: 7b32 f03d 9aed a7be f02f 6cbe 8450 b3be
000000e0: d022 843e 0439 b0bd e66c 0dbe f396 5cbe
000000f0: f933 623e ba9a ffbe 719c e93e 2566 513e
00000100: cd39 033f 4d88 c63e fcf6 4ebd ac62 b6be
00000110: ee8d bbbe 5b38 f23e ca29 a13e 3aa4 7bbe
00000120: ee8d adbe c9bd 153f 1537 ee3e 8145 e9bd
00000130: ac9c 303e 838d e3be 801b de3e 7861 e6be
00000140: 5433 f53e 9ee2 eb3e 3bc8 aebe 1f0c d73e
00000150: 9f4d d0be 2215 f13e afe7 c53d 19fe 03bf
00000160: 39b3 d3be 8621 84be e979 58be 0b8c 06bf
00000170: 8543 0bbf 49df fcbe 22d0 ca3e b613 12bf
00000180: 56d1 e73e a9b8 8fbe 2c3c 863d 4fa5 093f
00000190: 1f40 debd 75b5 08bf 6587 6d3e f33d 513e
000001a0: 0e23 f03e 4be1 1dbe cf21 d53e ca0b d8be
000001b0: 1486 9dbe 02c5 a83e 7990 febe ce6c e23e
000001c0: abb6 07bf b1d1 75be 823a 85be 5972 e23e
000001d0: a20d 61be c67b e33d 1d45 0cbf 7d1e 073f
000001e0: 3294 5b3b 9132 8c3d ed5d 0e3f 532d a93e
000001f0: 2ecc c9be 7281 5b3e cd63 cb3d 17a2 bb3e
00000200: f22c f13d 5a36 503e 03e0 0a3e 1175 253d
00000210: ff58 76be 648e c3be 7ed6 cd3d 0ba7 cc3e
00000220: e1d8 3d3e b289 bb3e d58c b93e a336 49be
00000230: ed46 513d 6f36 e0be e9ab 53be 8801 7ebe
00000240: 03ff 01bf 31b1 ab3e 52d8 123f eca0 50be
00000250: c82b f53d 1d2d 113f 236b 74be de14 0b3f
00000260: cc74 cfbd aee7 ff3e b49b c3be fc82 6f3c
00000270: 9a3b 983d e0a3 ba3e 6a28 903e 86aa ee3e
00000280: 2097 b3be 6a1e ac3e 28c3 17be bf59 913d
00000290: 78a8 afbe 4c5f abbe e91a 443e cda0 883d
000002a0: 7cfe 183f 8bd3 06bf 1807 27be 74ac be3e
000002b0: 26b4 e03e 56d5 bd3d 6961 e2be 5320 103f
000002c0: bc10 033f 743c 193d 72db 9d3e c064 debe
000002d0: e81e 123f 98d1 95bd cb7e 7a3d cce1 c7be
000002e0: a47d dc3e 78ef e63d 97aa 8d3e b774 573e
000002f0: c087 ffbe fe4c 753e 8848 d83e 44fa d8be
00000300: d42a 9ebe 3fe5 da3d 821b 60be 77a5 2abe
00000310: 7664 f23e 3224 af3e e004 a8be 2c46 64bc
00000320: e9cf ec3e 45b7 913e 68fa 93be 5eb4 0ebe
00000330: bca1 113e 08ac b6be 76b0 fdbe d8c0 60be
00000340: f88f e9be b8ea be3e 3f26 f13d f822 f9be
00000350: c427 963d 0eea 063e b884 e83e a791 c83d
00000360: a339 0fbf 5fea 6abe d3b1 393e cc88 69be
00000370: b678 c4bc b0f5 8bbb 2dd9 08bf f805 c3be
00000380: 8e1d a5be 03ec 04bf e742 6dbe 6c2f 8bbe
00000390: cca0 783e 6ee4 9cbe 85e5 91be 3e99 f7be
000003a0: 3b8b 593d 3c9e e73e 4d58 073f ad87 af3e
000003b0: 9d86 aa3e 6ad1 c7be 4f0b f03d c64a 6b3e
000003c0: 23a9 853e ce59 06bd cd0a 243e c06c 123f
000003d0: 0221 38be dc73 c63e 78e2 cdbd b3b2 00bf
000003e0: 6cf9 f63e 3715 ec3e f7d1 61be 2c49 453d
000003f0: 9ee3 9f3e 2014 bcbe 9332 0cbf 2b22 88bd
-0.35786802 -0.08543461 -0.17745519 0.4179536 -0.46343756 -0.525928 -0.3845104 0.15847921
0.047193035 0.44173297 -0.5216878 -0.422457 0.32671666 0.37581024 0.57386595 0.40751374
-0.2051785 0.58076257 0.53231186 0.178144 0.10857919 0.35998708 0.5155716 -0.2283881
0.010658038 -0.16435744 0.32472128 0.06141721 0.5575435 -0.06702823 -0.21534772 -0.07208997
0.34497595 0.14918748 -0.32322425 0.56019115 -0.35545835 -0.32640976 0.4969139 0.398238
-0.22294411 0.5388964 0.20671627 0.16379243 -0.48100197 -0.39692166 -0.5076098 -0.43933222
-0.09476564 -0.445211 -0.55458194 -0.1948695 0.117283784 -0.32798463 -0.23065162 -0.35022366
0.2580781 -0.08604625 -0.13811073 -0.21541958 0.22090138 -0.49922734 0.45627168 0.20449121
0.5126007 0.38775864 -0.05052851 -0.35622156 -0.3663172 0.4730862 0.31477195 -0.24574366
-0.33897346 0.58492714 0.465264 -0.1139021 0.17247266 -0.44443902 0.43380356 -0.44996238
0.47890723 0.46071333 -0.3413714 0.42001435 -0.4068422 0.47086436 0.09663331 -0.515596
-0.41347674 -0.25806826 -0.21140255 -0.5255744 -0.543999 -0.49389103 0.39611918 -0.57061327
0.45276898 -0.28070572 0.065544456 0.53767866 -0.10852074 -0.5340188 0.2319618 0.20433788
0.46901745 -0.15417974 0.41627356 -0.42196494 -0.30766356 0.32962805 -0.497196 0.44223636
-0.53013104 -0.24005772 -0.260212 0.44227865 -0.21977857 0.11107592 -0.5479296 0.52780896
0.003350508 0.06845582 0.5561207 0.33042392 -0.3941359 0.21436098 0.09931145 0.36647102
0.11776151 0.20333233 0.13562016 0.040394846 -0.24057387 -0.38194573 0.10050677 0.39971194
0.18539764 0.3662849 0.3624026 -0.19649749 0.05109303 -0.4379153 -0.20671047 -0.24805272
-0.5077974 0.33533624 0.5736133 -0.20373887 0.11971241 0.5670946 -0.23868994 0.54328716
-0.10129699 0.49981445 -0.3820473 0.014618631 0.07433243 0.36453152 0.28155833 0.46614474
-0.35076237 0.33616954 -0.1482054 0.07097196 -0.3430822 -0.33471143 0.1915089 0.06671295
0.5976331 -0.5266654 -0.163113 0.37240946 0.43887442 0.09269206 -0.44214943 0.5629932
0.5119741 0.03741117 0.30831486 -0.4343624 0.5707841 -0.073153675 0.061156075 -0.39039457
0.43064606 0.11276144 0.27669212 0.21040617 -0.49908257 0.23955151 0.42242837 -0.42378438
-0.3089205 0.106882565 -0.21885493 -0.16664682 0.4734227 0.34207302 -0.3281622 -0.013932746
0.46252373 0.28460136 -0.28901982 -0.13935992 0.14221853 -0.35678124 -0.49548692 -0.21948564
-0.45617652 0.3728845 0.11774873 -0.48659492 0.073318034 0.13175222 0.45413756 0.09793406
-0.5594732 -0.22940968 0.18134241 -0.2280609 -0.02398334 -0.0042712316 -0.53456384 -0.3809049
-0.3224911 -0.51922625 -0.23170052 -0.27184618 0.24280089 -0.30643028 -0.28495422 -0.48359102
0.053111296 0.4523791 0.5286911 0.342832 0.33305827 -0.39026958 0.11720907 0.22977743
0.26105604 -0.03280049 0.16019745 0.5719719 -0.17981341 0.3876027 -0.10052961 -0.50272673
0.4823717 0.46109936 -0.22052751 0.048165485 0.31228346 -0.36734104 -0.5476467 -0.06647142

conv1.lin_r.weight f4 [256, 3]
00000000: 690e 11bc 2f4a 203d fc98 af3d 38dc bcbd
00000010: e1c5 063e 2d3b 7c3d 0351 ae3c 8db2 5b3d
00000020: 9dbd d0bd 9805 473d 114e 07be 8efe ec3c
00000030: f670 133e 88c1 2bbe be9e ddbd e5fa a0bd
00000040: 8c83 8a3d 483b cabc 0716 603c 4d65 d83d
00000050: 6392 b23d c06b 8fbd a7bf b2bc 786d 0d3e
00000060: b427 58bc 0c30 a4bd 1043 f33d c324 a63c
00000070: 902d 8ebd 483f debc 1859 af3d c9de f33d
00000080: c2ee e3bd fbb9 bebd d7d1 05bd b382 0cbe
00000090: ebad bebc 0af7 e3ba 0e61 233d 6243 77bb
000000a0: f4be 31bc 82d9 dabc de2d 98bd d755 b53d
000000b0: bb51 e1bd 6a91 ecbc 6c4e e4bd c9cd 593d
000000c0: 9456 4d3c 1de8 19be f2ff 823d 03c6 2cbc
000000d0: ac98 373d 5b02 11be fd79 21bd 63da 3c3d
000000e0: 5594 09be 0d57 efbd bce1 0cbe a938 ffbd
000000f0: 017a 9abc 4786 b03d fdb3 ffbc 6e7e d03d
00000100: 8aaf 05be 3723 9d3d c01d 1d3c c5ba b03c
00000110: e475 83bd 5587 89bd 758c 863c 1bd8 e8bc
00000120: 10d6 98bd 8285 b13d ba0e 353d 55e1 a93c
00000130: 03a3 f5bd f6c8 e63c 0b28 0f3e bd3b 343d
00000140: 30c4 cd3d ae1f 59bd b18d f6bd 579b 1f3e
00000150: 4b7a 9a3d cff1 c03d 5f52 b93d 1660 ba3d
00000160: 8fe1 c83d 5e38 f0bd 9fc0 f0bc c33f fd3d
00000170: 3fdf 993d a192 883d 2252 ebbd 95ec 75bd
00000180: 6054 c33d 4353 c0bc d92c 0cbe d30d f43d
00000190: bf94 c1bd 6b0f 8d3d 1fc8 193d d0cf 183d
000001a0: f6ea 9bbd f62b bbbd d403 e13d 9926 b1bd
000001b0: 4432 f8bd 5c56 0ebe 646c 58bd 7aff 9ebd
000001c0: d6c3 0abe c566 a9bd 2d9b dc3d 96c7 a0bd
000001d0: 749d 08ba 591b 16be d901 133e 3846 413d
000001e0: 79f6 b5bd 1ec9 173c b949 0fbe 71e2 fb3d
000001f0: 7a27 00be d1a8 773c c1e0 ec3d 7634 3dbd
00000200: 1184 3f3d 3167 903c 64a3 93bd c60e 98bc
00000210: ef93 69bd 0a56 f9bd 764e 773d f429 e53d
00000220: bd14 ef3c e3e4 c8bd b575 c3bc 6bdf 073d
00000230: 5c93 c0bd d425 7fbd 3240 b0bd 9667 293d
00000240: 8ca2 d03d 54a3 92bc e8fd 17bc 72ca a4bd
00000250: b1b6 153e ba99 33bc 284e ff3d 9f64 b93d
00000260: 4b49 09be 5914 963d 6f70 683d 50e5 a03c
00000270: 003c 383d 4bad debd ee63 12be 93f5 07be
00000280: cee5 163e 7d0e c2bd dac4 d83d 65fe 41ba
00000290: ab0d a13d 732a 833d 8b05 153e d3c7 6ebc
000002a0: 0943 57bd 20ad d73d 1278 5bbd df68 0d3e
000002b0: 973a fa3d d50e 0a3e b705 1cbd 8ec1 ff3d
000002c0: 2e4f d7bc 4166 923d 528c 173e 243a f2bd
000002d0: bef3 e43d 24a5 09be ceed 2bbd 2fb3 883d
000002e0: 10fa 97ba 3b87 1ebe 3d31 c9bc 117d 66bd
000002f0: 4b3b acbc 6bf0 c13d 13fb 04be 1ac3 e2bd
00000300: 76e8 c8bd b08c 8fbd dbe9 863c 05ed 933c
00000310: d0d0 08ba f854 c7bd d78d 0bbe d132 3bbd
00000320: e928 b6bd 6d00 2ebd b297 ad3d 22d5 6e3d
00000330: e0ae 3a3c fce6 bf3d f9a6 9c3d 0e59 cf3d
00000340: 60ce b9bd 8b4e 133e 58c5 3e3d 2a8f f6bd
00000350: 7034 93ba 958a 0abe 0615 753d 2524 9cbc
00000360: c53c 11be ae33 32bd d45f b2bd adeb 0ebe
00000370: e721 553d d4c0 dcbd 5bee b93d 98d3 93bd
00000380: e218 fc3d 1c7a 57bd 5083 e2bc a996 06be
00000390: 40e7 b0bd d2b9 013e 23bb 16be 7a0f c3bd
000003a0: 13b7 0abe 69e6 85bd 00b6 02be d74f e13d
000003b0: bdea 3cbd 1bc6 9c3d 807e 09bd af88 22bd
000003c0: b3b2 e93d fcb5 093e 9957 f4bc f0fa 68bc
000003d0: 0331 0dbe 6cc6 02bb a89f c2bd d3bc f83d
000003e0: 961e 1c3e e8d4 11be 8a73 04be 0380 b1bd
000003f0: 1283 cb3d 44f0 e6bc 3474 d0bd c8c1 17be
-0.008853533 0.039133247 0.08574101 -0.09221691 0.13161422 0.061579872 0.021278864 0.053637076
-0.10192416 0.04858932 -0.13213374 0.028929975 0.1439856 -0.16773045 -0.10821293 -0.07860354
0.06763372 -0.02468647 0.013677127 0.105661966 0.08719327 -0.070029736 -0.021819903 0.1381129
-0.01319306 -0.08016977 0.118780255 0.020281201 -0.06942284 -0.027129784 0.08561915 0.11907727
-0.11129524 -0.09312817 -0.032670822 -0.13721733 -0.02327629 -0.0017392349 0.03988748 -0.0037729372
-0.010848749 -0.026715044 -0.074306235 0.08854263 -0.11001917 -0.028877933 -0.1114777 0.053174768
0.012532849 -0.1502995 0.06396474 -0.010545257 0.044823334 -0.14161055 -0.039422978 0.046106707
-0.1343549 -0.116865255 -0.13757986 -0.12461979 -0.018857004 0.08619361 -0.031213755 0.101803645
-0.13055244 0.07672732 0.0095896125 0.021573434 -0.0641897 -0.06715266 0.016424397 -0.02842336
-0.07462704 0.08668043 0.044203497 0.02073733 -0.11993983 0.028171998 0.13980119 0.044002283
0.100471854 -0.053008728 -0.12038744 0.15586601 0.07542857 0.09421121 0.09048914 0.09100358
0.09808647 -0.11729501 -0.029388724 0.12365677 0.07513284 0.06668592 -0.11490275 -0.060040075
0.09537578 -0.023477202 -0.13688983 0.11916699 -0.09452199 0.06887706 0.037544366 0.03730756
-0.076131746 -0.09139244 0.10987058 -0.0864994 -0.121189624 -0.13900131 -0.052837744 -0.07763572
-0.13551268 -0.08271555 0.10771785 -0.07850568 -0.00052114506 -0.1465887 0.14356174 0.047186106
-0.088849016 0.009264259 -0.13992967 0.1229905 -0.12515059 0.015115933 0.11566306 -0.04619261
0.046756808 0.01762733 -0.07208899 -0.018561732 -0.057025846 -0.12174614 0.06037756 0.111896425
0.029184693 -0.09809282 -0.023859838 0.033172052 -0.094031066 -0.062291935 -0.08605994 0.041358553
0.10187253 -0.017900147 -0.009276845 -0.08046426 0.14620472 -0.010961944 0.12466079 0.09052395
-0.13406865 0.073281 0.05674785 0.019640595 0.044979095 -0.10872897 -0.14295933 -0.13277273
0.14736101 -0.0947542 0.105844215 -0.00074002735 0.07863935 0.06404581 0.14552896 -0.014574009
-0.052554164 0.10531068 -0.053581305 0.13809536 0.122182064 0.1348222 -0.038091388 0.124880895
-0.026282873 0.0714841 0.14799622 -0.11827496 0.11179303 -0.13441902 -0.041974835 0.066748016
-0.001159491 -0.15481274 -0.024559611 -0.056271616 -0.021024367 0.09469684 -0.12986402 -0.11072369
-0.098099634 -0.07009256 0.016468933 0.018057356 -0.0005219104 -0.097330034 -0.13628326 -0.04570276
-0.08894522 -0.042480875 0.08476199 0.058308728 0.0113942325 0.09370229 0.07649035 0.10124408
-0.09072566 0.1438543 0.04657492 -0.12039025 -0.0011230838 -0.13529427 0.059834503 -0.019060204
-0.14183338 -0.043506317 -0.08709684 -0.1395709 0.052034285 -0.107789665 0.09078666 -0.07218093
0.123094335 -0.052606687 -0.027650505 -0.1314341 -0.086378574 0.12668541 -0.14719824 -0.09524436
-0.135464 -0.06538088 -0.1276474 0.11001556 -0.0461223 0.07654973 -0.033567905 -0.039681133
0.11411037 0.13448328 -0.029826926 -0.014219984 -0.13788228 -0.0019954694 -0.09503108 0.1214539
0.15246043 -0.14241374 -0.129347 -0.086669944 0.09937109 -0.02819074 -0.10178414 -0.14820015

conv1.lin_r.bias f4 [256]
00000000: c8c6 54bd 1e8f 05bf ec06 ed3e dd62 083f
00000010: f270 c53e ce7c c8be a831 aa3e d6f9 0bbd
00000020: f58a 0e3f a2f3 81be 3716 c03e fdfe 463e
00000030: 3d15 ef3c 3108 9b3e 9770 083f b787 a43e
00000040: 0ed1 8e3e 46d4 ecbe 07eb 993e 6fc6 aabe
00000050: aa48 cdbe 8c0a b3bd 9a41 6cbe 2e29 22be
00000060: 9132 14be f1c0 f13d 5e12 093f 3d91 2fbd
00000070: ed5e d3be 4c58 01bf 42fb cbbe 2c9f 2fbe
00000080: 4d3a 043f 9832 bebe 5c5d aa3d 208f 2b3d
00000090: 07fb 0ebf 88a7 8a3c 457e 9bbe 19e1 093f
000000a0: 942f 23be df57 923e 8574 12bd 31fb cb3e
000000b0: a7c5 f1be e450 0abf 0fb6 eebd 709f e83d
000000c0: 8204 01be e360 b6be 35af 323e a2ab 4a3e
000000d0: 5d4d 05bd 88ef 073f 17e7 80be 1622 733e
000000e0: 04dd dd3e 16ad fabe ef88 923d 69f4 903e
000000f0: 3206 163e b48c a73e 4d8d 2bbe 5227 8dbc
00000100: e21a bebd 273f 073f 82fb a7be 75ad 9f3e
00000110: bdcd bbbe 9289 a7bd a987 953e 698b f1be
00000120: 4685 55be c5d6 91be 58b9 d43e 3258 013f
00000130: c5ab 1ebe b48e 08bf d50a c3bd aaf0 023f
00000140: 2353 bfbe 6b64 09bf 5078 fb3e 00dd d8bd
00000150: 6c45 cbbe b121 ba3e 50c4 bcbc 67b1 a63e
00000160: e7de 993d f687 9a3e 9434 353c 9448 98bd
00000170: 4fbe 853e 5b42 ce3e df3f 813e 327b e1be
00000180: 49bc c8be 3804 8fbe ab85 cb3c 8446 c73c
00000190: e55a 023f 8735 433d d27a 0cbe 8c94 b5be
000001a0: 0d7b 39be 67e9 5b3d 7f3b 073f 4234 81bd
000001b0: 376f a8bc f737 0ebf 872e 28be 1acb 73be
000001c0: 067e af3e 900b 2f3e e67a 08bf a0f8 f2be
000001d0: 304f cf3e d233 eebe 7e2c d03e 47da 0a3f
000001e0: 2c6f 823d 7ca1 853e 308e 013f 54a5 123e
000001f0: 0b42 053f 58de f5bd 887b 0bbf 677f 44be
00000200: d1ed cdbe ebda d13d f4ab 0abe a730 9e3d
00000210: 7d0f d53e 3326 f23b e88f e6be 11f0 003f
00000220: 22f6 423c f3c3 e0be e579 083e 4949 5fbe
00000230: 7f2c 013e ff07 b53e e86c 903d eea2 083e
00000240: 0bb6 803e 7458 4a3b c489 dfbd d557 743d
00000250: 8a94 e4be bb2b 953d 18ae e7bc bc53 e73e
00000260: 4a7b 0e3f 1644 b3be 397d 463d 79e4 ef3e
00000270: aa07 98bd 20da c83e 84d7 473c bbb1 00bf
00000280: 2be3 513e 4349 0c3f ddb0 aa3d 8548 1ebe
00000290: 694d f6bd 2fc6 783e 1b3e cebe d618 953e
000002a0: 47b3 f43e 72bc 0e3e 6be3 cf3d 7fb9 c1be
000002b0: fa4a b93d 7e86 c3bd 5504 073f 0edb d5be
000002c0: 036f 66bd b802 bebe 5065 573d 18ec f1be
000002d0: 104e 0b3b b4f6 a7be 2b4f 85bc bd49 6ebd
000002e0: 1817 11be 77d4 c63e 5ba0 ca3e 157c 0d3f
000002f0: 89cb 23be 3957 a43e 1bad 753e 0c26 3dbe
00000300: b702 08be 3146 b03d dd3d e03d c251 03bf
00000310: 4647 ec3e fd10 42bd 8108 f1be e081 90bd
00000320: 4ae1 1cbe dc7c f7be d9db d6bd 3491 dcbe
00000330: 0803 c43e cc91 9bbe f87e f33e 678d 5b3e
00000340: 7de5 efbe 7af8 10bf ebcf 8b3e e84d c6be
00000350: 35e9 5bbe 1457 0ebf 6984 12bf 6354 a73e
00000360: a5d8 89bc d65e 01bf c15c 913e 0126 223e
00000370: fae8 efbe 880a f63d a7b2 4e3e 8101 113f
00000380: 58bf 113f 9986 b33e 8c61 f53d 2995 12bf
00000390: 8bef 6b3e 3f29 12bf abe0 d8bd b815 653e
000003a0: 6ec5 24be 40e2 8ebe 89ec 06be 463e ebbe
000003b0: 4558 e0be 0163 ed3e f898 9abe 62ad 063d
000003c0: 4a44 a3be a247 22be 08f6 ddbe ed52 353e
000003d0: 90b7 083e 1687 0b3f 91ce 00bf 9100 4ebe
000003e0: f70d 3dbe 04bb 013f 699c ebbe e32f 0d3f
000003f0: 39a0 0fbf 0625 d73e 7799 fcbe 4ef9 a63e
-0.051947385 -0.52171504 0.46294343 0.53275853 0.38562733 -0.39157718 0.3324101 -0.03417381
0.5568078 -0.2538119 0.3751695 0.19433208 0.029184932 0.30279687 0.532968 0.32134792
0.2789387 -0.46255702 0.30062124 -0.33354518 -0.400945 -0.08742246 -0.230719 -0.15836021
-0.14472415 0.11804379 0.5354365 -0.04286312 -0.4128336 -0.50525355 -0.39840132 -0.17150563
0.5165146 -0.37147975 0.08318588 0.04188454 -0.5585179 0.016925588 -0.30369774 0.53859097
-0.15936118 0.28582665 -0.035755653 0.3984008 -0.4722111 -0.5402968 -0.11655819 0.11358535
-0.12599376 -0.35620794 0.17449649 0.19792035 -0.032544482 0.5309987 -0.25176308 0.23743472
0.43332684 -0.4896018 0.07155024 0.2831147 0.14650801 0.32724535 -0.1675312 -0.017230663
-0.09282471 0.5283074 -0.32809073 0.31187025 -0.36680403 -0.08180536 0.29205063 -0.47176674
-0.20851621 -0.2848417 0.41547656 0.505252 -0.15495212 -0.5334275 -0.095235504 0.51148474
-0.37368116 -0.5366885 0.4911523 -0.105890274 -0.39701402 0.3635383 -0.023042828 0.32557222
0.075132184 0.30181855 0.011059899 -0.07435718 0.26121756 0.40285 0.25244042 -0.44039303
-0.3920615 -0.27932906 0.024844011 0.024325617 0.50919944 0.04765847 -0.13718727 -0.35464895
-0.18113346 0.053689387 0.5282516 -0.063087955 -0.020560844 -0.55554146 -0.16423999 -0.23807946
0.34275836 0.17094254 -0.5331253 -0.4745531 0.40490103 -0.4652391 0.40658945 0.54239315
0.063688606 0.26099765 0.50607586 0.1432088 0.520539 -0.12005299 -0.5448537 -0.19189225
-0.40220502 0.102468334 -0.13542157 0.077241234 0.4161338 0.0073898076 -0.45031667 0.5036631
0.011899503 -0.43899497 0.13327749 -0.218053 0.1261463 0.35357663 0.07052022 0.13343403
0.25138888 0.0030875476 -0.109149486 0.059654076 -0.44644576 0.072837315 -0.028281257 0.45181072
0.55656874 -0.35012883 0.048459265 0.46853998 -0.07423337 0.39228916 0.012197379 -0.50271195
0.20496814 0.5479929 0.08334515 -0.15457352 -0.120264836 0.24294351 -0.40281758 0.2912051
0.47793028 0.13939074 0.101507984 -0.37836835 0.09047504 -0.09547137 0.52740985 -0.41768688
-0.056258213 -0.3711145 0.052586854 -0.47250438 0.0021256246 -0.32805407 -0.016273102 -0.05817579
-0.14168966 0.38833973 0.39575467 0.5526746 -0.15995611 0.32097796 0.23991816 -0.18471545
-0.13282286 0.08607138 0.109492995 -0.5129663 0.46148127 -0.047379483 -0.470768 -0.07056022
-0.15320316 -0.48337448 -0.10491151 -0.4307953 0.38283563 -0.30384672 0.47557807 0.2144066
-0.46854773 -0.56629145 0.27307066 -0.38731313 -0.2147568 -0.5560162 -0.5723329 0.3268157
-0.016826937 -0.50535333 0.28391078 0.1583481 -0.46857435 0.120137274 0.20185338 0.5664292
0.5693259 0.35063627 0.11981496 -0.5725885 0.23040597 -0.57094187 -0.10589727 0.22371566
-0.16090938 -0.2790699 -0.13176169 -0.45945948 -0.43817344 0.46364596 -0.3019483 0.032880194
-0.31888038 -0.15847638 -0.4335177 0.17707415 0.13351274 0.54503 -0.50315195 -0.20117404
-0.18462358 0.5067599 -0.4601777 0.55151194 -0.56103855 0.42020434 -0.49335834 0.3261208

conv2.att f4 [1, 2, 64]
00000000: d71b 40be f870 71be ec47 84be 78a2 113e
00000010: fb65 5cbc 797e 473e 6595 14be 6694 473e
00000020: 67d1 38bd f667 1e3d d373 ff3d bb55 4d3e
00000030: ca48 7e3d 9ce6 6fbe 40bc 28bd 5027 963c
00000040: 898f 903e b941 123e 3cf1 853d 3e21 713e
00000050: 5433 6d3e 46af 283e d59b 963e 6458 3ebe
00000060: 0c8a 8dbe 64af d8bd a3d5 683e 087c 07bd
00000070: db42 33be a19b 65be f0d7 88be bf50 963e
00000080: 226a 1bbe b714 553e f18a 8bbd cbfb 9b3e
00000090: 971e 2abe e665 7ebd 36ff 093e 2cf5 873e
000000a0: 0596 963d 10ce 0a3d 9aee 1f3e a617 3f3d
000000b0: 8b3e 0f3e 4f1b cabc ce07 d23b 0635 a7bd
000000c0: edd2 01bd 6d2a 99bd 7bb6 753e dfdb 8ebe
000000d0: f9de 7e3e 6598 59be 6c51 4abe 0b2d 60be
000000e0: 40c9 f1bc d01b 943e 7eab 653e 5197 53be
000000f0: 0b84 3a3e a693 4c3d 7aa2 ec3d 485a 703c
00000100: 4161 2b3e 5a2e 5bbe 4262 78be 5e9b 223e
00000110: 1bcb 143d d13f 093e 779e 37be 5c9d 3a3e
00000120: 6f9f 183e f5bf c53c 1779 c2bd 2dd6 fa3b
00000130: 942c 163e 43ca 993d cac1 903e 4ad2 b93d
00000140: af52 e93b dbca 203e 87c8 9cbd 7a37 1b3e
00000150: e11e 613e 4fe8 823e f41a 963e 8dc5 c2bd
00000160: 33a4 cdbd d676 f53d f3c2 65bd d4a7 a6bd
00000170: cd17 083e 7285 dfbc 5260 8b3e cc4f 433e
00000180: 891f 00be 4a7c 2fbe 081d b13d 17cd 9fbd
00000190: 7685 80be 2508 58bd 070a 153e f059 b2bc
000001a0: e37e 913e d13e c63d 067a 953c f2f4 01bd
000001b0: d466 e9bd d3f8 663d 4bcf 6dbe 6a9f 9cbe
000001c0: 9ec8 9e3d b239 6e3e 6dcc 893c 7517 0e3d
000001d0: 4137 34bd 2704 d03d 29c9 20be 5caf 933d
000001e0: 288b 5a3e e838 963e a073 9b3d 4ea9 f63c
000001f0: 3bfa 81be 682c 1a3e 74f6 b7bd 694f 423e
-0.1876062 -0.2357825 -0.25836122 0.14222133 -0.013452048 0.19481839 -0.14510114 0.19490203
-0.045121577 0.038673364 0.124732636 0.20052235 0.062081136 -0.23427814 -0.041195154 0.018329293
0.2823451 0.14282884 0.065401524 0.23547837 0.23164111 0.16473112 0.29415765 -0.18588406
-0.27644384 -0.10580328 0.22737746 -0.03307727 -0.17505972 -0.22422649 -0.26727247 0.2935848
-0.15177205 0.20808683 -0.0681361 0.3046554 -0.16613232 -0.062108897 0.13476261 0.2655424
0.07352833 0.033887923 0.15618363 0.046653412 0.13988702 -0.024671225 0.006409622 -0.0816441
-0.031695295 -0.07478795 0.23995392 -0.27902123 0.24889745 -0.2124954 -0.19757622 -0.21892183
-0.029514909 0.2892747 0.224287 -0.20663191 0.18214433 0.049945496 0.115544274 0.014669962
0.16736318 -0.214044 -0.24256232 0.1587958 0.03632651 0.1340325 -0.17931543 0.1822409
0.14904569 0.024139384 -0.09495752 0.0076549263 0.14665443 0.075092815 0.2827285 0.090733126
0.0071204524 0.15702383 -0.07655435 0.15157881 0.21984436 0.25567862 0.2931744 -0.09510336
-0.10041084 0.11985557 -0.05609412 -0.081374794 0.1329033 -0.027285311 0.27221924 0.19073409
-0.1251203 -0.17137256 0.086481154 -0.0780279 -0.25101823 -0.052742142 0.14554606 -0.021771401
0.2841712 0.0967995 0.018246662 -0.03172774 -0.11396566 0.05638964 -0.23223607 -0.30590373
0.077531084 0.23264197 0.01682111 0.03469034 -0.043998007 0.10157042 -0.15701737 0.072111815
0.21342146 0.2934029 0.07590413 0.030110028 -0.25386223 0.15056002 -0.08982554 0.18975605

conv2.bias f4 [64]
00000000: 23a6 b6bb b781 6d3c 5f5d 84bc 8e19 02bc
00000010: 56a2 96ba fa84 11bc 2c26 3cbc 480a f73c
00000020: 1cce 943c a0d4 743c e982 ee3c b78c bdbb
00000030: 8458 b53c e88b fd3c 5f99 0dbc 6947 c63c
00000040: c852 b9ba e512 da3c 9a48 af3b 89de 14bc
00000050: 01fe 83bc ff56 033d 7837 883c 0000 0000
00000060: 37d4 a6bb c88b 4bbc c601 c8bb 1ba5 b43b
00000070: 0240 52bb 34e5 c83c 9274 ce3c 1ed1 64bc
00000080: ceaf bc3c be14 b83c f1b0 c43c 7783 01bc
00000090: b2c3 813c ac75 b3bb fa49 013d 87a0 1e3a
000000a0: 8eb3 c53c 39e2 32bc be69 56bc 5fef 093d
000000b0: 4fe0 14bc f1bc 093b 9601 1abc 3214 14bc
000000c0: 0c58 fb3b 7a75 c3bb abb0 81bc 0000 0000
000000d0: 1a84 e03c 0000 0000 0000 0000 a0e3 fc3c
000000e0: e601 c43c 8ca1 40bc 7d21 4ebb 75ce 86bc
000000f0: d0cb 09bc ce62 df3c 38d5 fa3c 373c dabb
-0.0055740043 0.014496258 -0.016157804 -0.007940663 -0.0011492472 -0.008881802 -0.01148371 0.03015627
0.018164687 0.014943272 0.029115157 -0.005784597 0.022136934 0.030950502 -0.008642524 0.024203973
-0.0014139051 0.026620338 0.005349231 -0.00908626 -0.01611233 0.032065388 0.016628012 0.0
-0.005091216 -0.012423463 -0.006103727 0.005512846 -0.0032081609 0.024523355 0.02520207 -0.013965873
0.023033049 0.022470828 0.024010153 -0.007904879 0.015840385 -0.005476674 0.03156469 0.0006051142
0.02413347 -0.0109181935 -0.013086734 0.033675548 -0.009086682 0.002101716 -0.009399792 -0.009038018
0.007670408 -0.005964932 -0.015831312 0.0 0.027406741 0.0 0.0 0.030870259
0.023926686 -0.011757266 -0.0031453066 -0.016455868 -0.008410409 0.027268793 0.030619249 -0.00666001

conv2.lin_l.weight f4 [128, 256]
00000000: ce8b f9bd 6d67 40bd a30a 08bd 85dc e2bc
00000010: f0af 53bd 5231 d3bd bc8b c4bb 3b68 a0bd
00000020: 6072 e3bd 29f0 e8bd 6cef d73c 56b3 873c
00000030: 8f0e 0c3d 00c8 e83d 747e a43d 8e46 703d
00000040: 828b 22bd 5d17 193d 945c e3bc 2756 903d
00000050: 372c 7dbd f124 08be 5b81 67bd f840 673d
00000060: cee4 c73d e810 dd3d 48dd 8bbd f742 47bd
00000070: 55dd 853d 7fcb 43bd 0e29 8ebc 6d94 02bd
00000080: 9846 b6bc c241 473d 469b ce3d aace 42bc
00000090: 9c87 483a 0e5c db3d fe27 b6bb b7fe 4abd
000000a0: 8abd 143d 127f c0bd 1a4a c8bc b406 aa3d
000000b0: 02a8 ccbd 8ab1 a5bd 4062 503d 1c9b 52bd
000000c0: 4570 fcbd 5400 85bd 7c35 fcbb 9a8e 06bd
000000d0: 5850 13bd 6076 76bd 3a4b 953d d08e b73d
000000e0: 64d4 90bd 07c8 233d 7da8 e63c 5c2e 6bbd
000000f0: 0d9b 2dbc dc2f a0bd 0ab8 f0bc 4433 4a3d
00000100: 04a4 a73d e398 ab3d 6aa0 d2bd 3c57 55bd
00000110: 086b 473d a42b 85bd 28c6 80bd 7a6a e53d
00000120: 4c1d d93d 5103 ab3d 3dfa 39bc 5c1e 50bd
00000130: 797e 83bd eec2 323d 2c82 bbbd c4bc a1bd
00000140: 777b f4bc 0651 e8bd 0c88 fc3c 3bf7 a93d
00000150: 9cde d1bc cacf d8bd 7919 b5bd 9894 d13d
00000160: eec0 0a3c ee3d bcbc 031a e23d 6229 85bd
00000170: 1c7f 52bc ded0 103c decd 543d c699 39bd
00000180: 9e6d d0bd 4052 c4bd 4e7d cc3c c3c3 9e3d
00000190: 29c1 b03d d67a 953c 52d5 d73d 5d13 5dbd
000001a0: e4f3 a9bc ce9d 8d3c 13f3 7bbd 38e2 733d
000001b0: 3c53 403c bac0 b13c d87b d6bd fcbd 05be
000001c0: f655 aebc 2025 f33d 4e4f 90ba 989f c4ba
000001d0: 37ea ddbd 4032 ef3b 2694 b4bd 3b56 153d
000001e0: 10c2 8cbd 7253 8f3d 7366 213c ac5b 703d
000001f0: 542c adbd 1b1c 02be 5312 dabd 62d8 d5bd
00000200: 2b2c 49bd 131a 9c3d d708 943d 8e86 93bd
00000210: 6c75 6ebc 0c89 a4bd af5e a0bd d764 55bd
00000220: e727 bbbd ca9c 4e3d 992a 0bbd 0ea6 bdbd
00000230: 9028 853d 6443 563d fc2e 68bc c8cf 833d
00000240: bed0 fabd 1eef 1d3d 9b2e 833b a816 713d
00000250: 65d5 6e3a f325 2cbd 220c a2bd 35dc ea3d
00000260: 611e bcbd 4218 0f3d 64d2 6a3d f8c0 b43c
00000270: 6a86 c53c a310 1bbd 182b 853d 95a2 813d
00000280: 88ef cfbd b509 76bd a0b7 58bc 13a9 95bd
00000290: bc5b f4bc 7e07 93bc 9050 47bd a976 ef3d
000002a0: a3df 683b 187e 4d3d 3a97 1dbd 35e9 82bd
000002b0: 73d5 b3bd a0f6 46bd 700e e33d 237a 453d
000002c0: 52fd 3bbd 607e 7fbc 8146 d63d 2670 2c3d
000002d0: 7bb5 36bc 2ea4 dc3d 80d2 edbd 7cbb d1bb
000002e0: 9679 35bd cfbc a93d da4c fd3c 9b72 94bd
000002f0: 5e4a 063c 8c16 c1bc a75a 9abd 64b4 ce3c
00000300: ce00 983b 824e e7bd 1606 073d aa29 1d3d
00000310: fbeb c63d 441f 853d 38f5 82bd 1d52 bcbd
00000320: 26f0 a2bd 7f85 f2bd 6a11 053d ca5f 6ebc
00000330: db42 dc3c ecb1 e03c d800 d63d 6e8a 3f3c
00000340: de7d afbd 2d7c d0bc acad d4bd 2e17 11bc
00000350: bca1 4d3d e425 dc3c 045d 7f3c bffd 0e3d
00000360: 129b 853d e273 e23d df28 0e3d a9a5 adbd
00000370: 899d 2bbd f7e2 663c 4eba 883b b635 84bc
00000380: 8c6f ee3d c280 833d fc62 cabc c46b 033d
00000390: a4f1 d33c 3653 1e3d 10c7 8d3d 0a33 1abd
000003a0: 5657 e43d 7c64 a8bd 829e 3d3d 406e 9f3b
000003b0: b0c7 bebd 8089 f1bd 1adc cdbd f086 b8bd
000003c0: efb5 03be 7bcc 7e3d 0391 cabd 1cd1 e53d
000003d0: 96b8 8dbc 616d 66bd d6a6 babc 3ca8 86bd
000003e0: 0afa 073d c2e4 a8bc 6263 c3bd 08cf a1bd
000003f0: cc54 0dbd e233 c43d a64f 283d b5d0 493d
-0.12184869 -0.046973635 -0.03321327 -0.027693043 -0.05168146 -0.103121415 -0.005998103 -0.078323804
-0.111058 -0.11373932 0.026359282 0.016565006 0.03419357 0.11366272 0.080319315 0.058661036
-0.039683826 0.037375797 -0.027754106 0.07047682 -0.061809745 -0.13295342 -0.056519847 0.056458443
0.09760438 0.1079424 -0.068293154 -0.048647847 0.06536356 -0.04780149 -0.01735356 -0.03187983
-0.022250459 0.048646696 0.1008821 -0.011890093 0.0007649602 0.107109174 -0.0055589667 -0.04955932
0.03631357 -0.09399237 -0.024449397 0.0830206 -0.099929824 -0.080905035 0.05087495 -0.051417455
-0.12326101 -0.06494203 -0.0076968055 -0.03285084 -0.035965294 -0.060171485 0.07289739 0.08962786
-0.0707176 0.039985683 0.028156513 -0.05741726 -0.010596049 -0.078216285 -0.029384632 0.049365297
0.081855804 0.0837877 -0.10284503 -0.052085146 0.048686057 -0.065024644 -0.06287795 0.112019494
0.10601291 0.08350242 -0.011351165 -0.050810203 -0.06420607 0.04364293 -0.09155688 -0.07897332
-0.029844029 -0.11343579 0.030826591 0.082991086 -0.025618844 -0.105865076 -0.08842749 0.1023342
0.00846885 -0.02297875 0.110401176 -0.06502034 -0.012847688 0.00883886 0.051954143 -0.045312665
-0.10177158 -0.095860004 0.024962094 0.07752182 0.086305924 0.01824705 0.105387345 -0.053973544
-0.020746179 0.017287161 -0.06151111 0.05954191 0.011738595 0.021698344 -0.1047284 -0.13060755
-0.021281224 0.118723154 -0.0011009963 -0.0015001176 -0.108356886 0.0072996914 -0.088173196 0.03645919
-0.06872952 0.06998338 0.009851086 0.058681175 -0.084557205 -0.12706034 -0.10648026 -0.10441662
-0.049114387 0.07622161 0.072282486 -0.07203399 -0.014554363 -0.08033952 -0.078305595 -0.05209812
-0.0913847 0.050442494 -0.03397617 -0.09260188 0.06501877 0.052310362 -0.014171358 0.064361155
-0.12246846 0.038558118 0.0040033585 0.058859497 0.0009110778 -0.04202838 -0.079124704 0.114677824
-0.09185482 0.034935243 0.05732955 0.02206467 0.024111945 -0.037857663 0.0650236 0.06329838
-0.10153109 -0.06006785 -0.013227373 -0.07307639 -0.029828899 -0.017947908 -0.048660815 0.116925545
0.0035533688 0.05016908 -0.0384743 -0.06392137 -0.087809466 -0.048575044 0.11086738 0.04821218
-0.045895882 -0.015594095 0.10462666 0.04209914 -0.011151667 0.10773502 -0.11612415 -0.0064005237
-0.044305407 0.082879655 0.030920435 -0.07248422 0.008196441 -0.023570322 -0.07536822 0.025232501
0.004638768 -0.11294271 0.03296479 0.038369812 0.097129785 0.06500104 -0.06394428 -0.09195349
-0.07955961 -0.118418686 0.03248731 -0.014549205 0.026887348 0.02742859 0.1044938 0.011690719
-0.08568929 -0.025449837 -0.10384688 -0.008855624 0.05020307 0.026873536 0.0155861415 0.03490996
0.06523718 0.11057259 0.034706946 -0.08478863 -0.041898284 0.014092199 0.0041726 -0.016138893
0.1164237 0.06421043 -0.024705403 0.032085195 0.02587206 0.038653575 0.06922734 -0.03764633
0.111494705 -0.08222291 0.046293743 0.0048654377 -0.09315431 -0.11793804 -0.10051747 -0.09010112
-0.12862371 0.062206727 -0.0989094 0.11221525 -0.017299931 -0.056256656 -0.022784632 -0.06575057
0.03319744 -0.020616893 -0.0954044 -0.07900816 -0.034504697 0.09580208 0.041091584 0.049271304
